…
I0125 16:25:02.267052 22613 net.cpp:340] The NetState phase (0) differed from the phase (1) specified by a rule in layer data
I0125 16:25:02.267452 22613 net.cpp:50] Initializing net from parameters: 
name: "HED"
state {
  phase: TRAIN
}
layer {
  name: "data"
  type: "ImageLabelmapData"
  top: "data"
  top: "label"
  include {
    phase: TRAIN
  }
  transform_param {
    mirror: false
    mean_value: 104.00699
    mean_value: 116.66877
    mean_value: 122.67892
  }
  image_data_param {
    source: "../../data/HED-BSDS/train_pair.lst"
    batch_size: 1
    shuffle: true
    new_height: 0
    new_width: 0
    root_folder: "../../data/HED-BSDS/"
  }
}
layer {
  name: "conv1_1"
  type: "Convolution"
  bottom: "data"
  top: "conv1_1"
  param {
    lr_mult: 1
    decay_mult: 1
  }
  param {
    lr_mult: 2
    decay_mult: 0
  }
  convolution_param {
    num_output: 64
    pad: 35
    kernel_size: 3
    engine: CAFFE
  }
}
layer {
  name: "relu1_1"
  type: "ReLU"
  bottom: "conv1_1"
  top: "conv1_1"
}
layer {
  name: "conv1_2"
  type: "Convolution"
  bottom: "conv1_1"
  top: "conv1_2"
  param {
    lr_mult: 1
    decay_mult: 1
  }
  param {
    lr_mult: 2
    decay_mult: 0
  }
  convolution_param {
    num_output: 64
    pad: 1
    kernel_size: 3
    engine: CAFFE
  }
}
layer {
  name: "relu1_2"
  type: "ReLU"
  bottom: "conv1_2"
  top: "conv1_2"
}
layer {
  name: "pool1"
  type: "Pooling"
  bottom: "conv1_2"
  top: "pool1"
  pooling_param {
    pool: MAX
    kernel_size: 2
    stride: 2
  }
}
layer {
  name: "conv2_1"
  type: "Convolution"
  bottom: "pool1"
  top: "conv2_1"
  param {
    lr_mult: 1
    decay_mult: 1
  }
  param {
    lr_mult: 2
    decay_mult: 0
  }
  convolution_param {
    num_output: 128
    pad: 1
    kernel_size: 3
    engine: CAFFE
  }
}
layer {
  name: "relu2_1"
  type: "ReLU"
  bottom: "conv2_1"
  top: "conv2_1"
}
layer {
  name: "conv2_2"
  type: "Convolution"
  bottom: "conv2_1"
  top: "conv2_2"
  param {
    lr_mult: 1
    decay_mult: 1
  }
  param {
    lr_mult: 2
    decay_mult: 0
  }
  convolution_param {
    num_output: 128
    pad: 1
    kernel_size: 3
    engine: CAFFE
  }
}
layer {
  name: "relu2_2"
  type: "ReLU"
  bottom: "conv2_2"
  top: "conv2_2"
}
layer {
  name: "pool2"
  type: "Pooling"
  bottom: "conv2_2"
  top: "pool2"
  pooling_param {
    pool: MAX
    kernel_size: 2
    stride: 2
  }
}
layer {
  name: "conv3_1"
  type: "Convolution"
  bottom: "pool2"
  top: "conv3_1"
  param {
    lr_mult: 1
    decay_mult: 1
  }
  param {
    lr_mult: 2
    decay_mult: 0
  }
  convolution_param {
    num_output: 256
    pad: 1
    kernel_size: 3
    engine: CAFFE
  }
}
layer {
  name: "relu3_1"
  type: "ReLU"
  bottom: "conv3_1"
  top: "conv3_1"
}
layer {
  name: "conv3_2"
  type: "Convolution"
  bottom: "conv3_1"
  top: "conv3_2"
  param {
    lr_mult: 1
    decay_mult: 1
  }
  param {
    lr_mult: 2
    decay_mult: 0
  }
  convolution_param {
    num_output: 256
    pad: 1
    kernel_size: 3
    engine: CAFFE
  }
}
layer {
  name: "relu3_2"
  type: "ReLU"
  bottom: "conv3_2"
  top: "conv3_2"
}
layer {
  name: "conv3_3"
  type: "Convolution"
  bottom: "conv3_2"
  top: "conv3_3"
  param {
    lr_mult: 1
    decay_mult: 1
  }
  param {
    lr_mult: 2
    decay_mult: 0
  }
  convolution_param {
    num_output: 256
    pad: 1
    kernel_size: 3
    engine: CAFFE
  }
}
layer {
  name: "relu3_3"
  type: "ReLU"
  bottom: "conv3_3"
  top: "conv3_3"
}
layer {
  name: "pool3"
  type: "Pooling"
  bottom: "conv3_3"
  top: "pool3"
  pooling_param {
    pool: MAX
    kernel_size: 2
    stride: 2
  }
}
layer {
  name: "conv4_1"
  type: "Convolution"
  bottom: "pool3"
  top: "conv4_1"
  param {
    lr_mult: 1
    decay_mult: 1
  }
  param {
    lr_mult: 2
    decay_mult: 0
  }
  convolution_param {
    num_output: 512
    pad: 1
    kernel_size: 3
    engine: CAFFE
  }
}
layer {
  name: "relu4_1"
  type: "ReLU"
  bottom: "conv4_1"
  top: "conv4_1"
}
layer {
  name: "conv4_2"
  type: "Convolution"
  bottom: "conv4_1"
  top: "conv4_2"
  param {
    lr_mult: 1
    decay_mult: 1
  }
  param {
    lr_mult: 2
    decay_mult: 0
  }
  convolution_param {
    num_output: 512
    pad: 1
    kernel_size: 3
    engine: CAFFE
  }
}
layer {
  name: "relu4_2"
  type: "ReLU"
  bottom: "conv4_2"
  top: "conv4_2"
}
layer {
  name: "conv4_3"
  type: "Convolution"
  bottom: "conv4_2"
  top: "conv4_3"
  param {
    lr_mult: 1
    decay_mult: 1
  }
  param {
    lr_mult: 2
    decay_mult: 0
  }
  convolution_param {
    num_output: 512
    pad: 1
    kernel_size: 3
    engine: CAFFE
  }
}
layer {
  name: "relu4_3"
  type: "ReLU"
  bottom: "conv4_3"
  top: "conv4_3"
}
layer {
  name: "pool4"
  type: "Pooling"
  bottom: "conv4_3"
  top: "pool4"
  pooling_param {
    pool: MAX
    kernel_size: 2
    stride: 2
  }
}
layer {
  name: "conv5_1"
  type: "Convolution"
  bottom: "pool4"
  top: "conv5_1"
  param {
    lr_mult: 100
    decay_mult: 1
  }
  param {
    lr_mult: 200
    decay_mult: 0
  }
  convolution_param {
    num_output: 512
    pad: 1
    kernel_size: 3
    engine: CAFFE
  }
}
layer {
  name: "relu5_1"
  type: "ReLU"
  bottom: "conv5_1"
  top: "conv5_1"
}
layer {
  name: "conv5_2"
  type: "Convolution"
  bottom: "conv5_1"
  top: "conv5_2"
  param {
    lr_mult: 100
    decay_mult: 1
  }
  param {
    lr_mult: 200
    decay_mult: 0
  }
  convolution_param {
    num_output: 512
    pad: 1
    kernel_size: 3
    engine: CAFFE
  }
}
layer {
  name: "relu5_2"
  type: "ReLU"
  bottom: "conv5_2"
  top: "conv5_2"
}
layer {
  name: "conv5_3"
  type: "Convolution"
  bottom: "conv5_2"
  top: "conv5_3"
  param {
    lr_mult: 100
    decay_mult: 1
  }
  param {
    lr_mult: 200
    decay_mult: 0
  }
  convolution_param {
    num_output: 512
    pad: 1
    kernel_size: 3
    engine: CAFFE
  }
}
layer {
  name: "relu5_3"
  type: "ReLU"
  bottom: "conv5_3"
  top: "conv5_3"
}
layer {
  name: "score-dsn1"
  type: "Convolution"
  bottom: "conv1_2"
  top: "score-dsn1-up"
  param {
    lr_mult: 0.01
    decay_mult: 1
  }
  param {
    lr_mult: 0.02
    decay_mult: 0
  }
  convolution_param {
    num_output: 1
    kernel_size: 1
    engine: CAFFE
  }
}
layer {
  name: "crop"
  type: "Crop"
  bottom: "score-dsn1-up"
  bottom: "data"
  top: "upscore-dsn1"
}
layer {
  type: "SigmoidCrossEntropyLoss"
  bottom: "upscore-dsn1"
  bottom: "label"
  top: "dsn1_loss"
  loss_weight: 1
}
layer {
  name: "score-dsn2"
  type: "Convolution"
  bottom: "conv2_2"
  top: "score-dsn2"
  param {
    lr_mult: 0.01
    decay_mult: 1
  }
  param {
    lr_mult: 0.02
    decay_mult: 0
  }
  convolution_param {
    num_output: 1
    kernel_size: 1
    engine: CAFFE
  }
}
layer {
  name: "upsample_2"
  type: "Deconvolution"
  bottom: "score-dsn2"
  top: "score-dsn2-up"
  param {
    lr_mult: 0
    decay_mult: 1
  }
  param {
    lr_mult: 0
    decay_mult: 0
  }
  convolution_param {
    num_output: 1
    kernel_size: 4
    stride: 2
  }
}
layer {
  name: "crop"
  type: "Crop"
  bottom: "score-dsn2-up"
  bottom: "data"
  top: "upscore-dsn2"
}
layer {
  name: "concat_1to2"
  type: "Concat"
  bottom: "upscore-dsn1"
  bottom: "upscore-dsn2"
  top: "upscore-dsn2-fuse"
  concat_param {
    concat_dim: 1
  }
}
layer {
  name: "conv2_in"
  type: "Convolution"
  bottom: "upscore-dsn2-fuse"
  top: "dsn2_in"
  param {
    lr_mult: 0.1
    decay_mult: 1
  }
  param {
    lr_mult: 0.2
    decay_mult: 0
  }
  convolution_param {
    num_output: 1
    kernel_size: 1
    weight_filler {
      type: "constant"
      value: 0.01
    }
  }
}
layer {
  type: "SigmoidCrossEntropyLoss"
  bottom: "dsn2_in"
  bottom: "label"
  top: "dsn2_loss"
  loss_weight: 1
}
layer {
  name: "conv2to3"
  type: "Convolution"
  bottom: "upscore-dsn2-fuse"
  top: "conv2to3"
  param {
    lr_mult: 0.001
    decay_mult: 1
  }
  param {
    lr_mult: 0.002
    decay_mult: 0
  }
  convolution_param {
    num_output: 1
    pad: 1
    kernel_size: 3
    weight_filler {
      type: "gaussian"
      std: 0.001
    }
  }
}
layer {
  name: "score-dsn3"
  type: "Convolution"
  bottom: "conv3_3"
  top: "score-dsn3"
  param {
    lr_mult: 0.01
    decay_mult: 1
  }
  param {
    lr_mult: 0.02
    decay_mult: 0
  }
  convolution_param {
    num_output: 1
    kernel_size: 1
    engine: CAFFE
  }
}
layer {
  name: "upsample_4"
  type: "Deconvolution"
  bottom: "score-dsn3"
  top: "score-dsn3-up"
  param {
    lr_mult: 0
    decay_mult: 1
  }
  param {
    lr_mult: 0
    decay_mult: 0
  }
  convolution_param {
    num_output: 1
    kernel_size: 8
    stride: 4
  }
}
layer {
  name: "crop"
  type: "Crop"
  bottom: "score-dsn3-up"
  bottom: "data"
  top: "upscore-dsn3"
}
layer {
  name: "concat_2to3"
  type: "Concat"
  bottom: "conv2to3"
  bottom: "upscore-dsn3"
  top: "upscore-dsn3-fuse"
  concat_param {
    concat_dim: 1
  }
}
layer {
  name: "conv3_in"
  type: "Convolution"
  bottom: "upscore-dsn3-fuse"
  top: "dsn3_in"
  param {
    lr_mult: 0.1
    decay_mult: 1
  }
  param {
    lr_mult: 0.2
    decay_mult: 0
  }
  convolution_param {
    num_output: 1
    kernel_size: 1
    weight_filler {
      type: "constant"
      value: 0.01
    }
  }
}
layer {
  type: "SigmoidCrossEntropyLoss"
  bottom: "dsn3_in"
  bottom: "label"
  top: "dsn3_loss"
  loss_weight: 1
}
layer {
  name: "conv3to4"
  type: "Convolution"
  bottom: "upscore-dsn3-fuse"
  top: "conv3to4"
  param {
    lr_mult: 0.001
    decay_mult: 1
  }
  param {
    lr_mult: 0.002
    decay_mult: 0
  }
  convolution_param {
    num_output: 1
    pad: 1
    kernel_size: 3
    weight_filler {
      type: "gaussian"
      std: 0.001
    }
  }
}
layer {
  name: "score-dsn4"
  type: "Convolution"
  bottom: "conv4_3"
  top: "score-dsn4"
  param {
    lr_mult: 0.01
    decay_mult: 1
  }
  param {
    lr_mult: 0.02
    decay_mult: 0
  }
  convolution_param {
    num_output: 1
    kernel_size: 1
    engine: CAFFE
  }
}
layer {
  name: "upsample_8"
  type: "Deconvolution"
  bottom: "score-dsn4"
  top: "score-dsn4-up"
  param {
    lr_mult: 0
    decay_mult: 1
  }
  param {
    lr_mult: 0
    decay_mult: 0
  }
  convolution_param {
    num_output: 1
    kernel_size: 16
    stride: 8
  }
}
layer {
  name: "crop"
  type: "Crop"
  bottom: "score-dsn4-up"
  bottom: "data"
  top: "upscore-dsn4"
}
layer {
  name: "concat_3to4"
  type: "Concat"
  bottom: "conv3to4"
  bottom: "upscore-dsn4"
  top: "upscore-dsn4-fuse"
  concat_param {
    concat_dim: 1
  }
}
layer {
  name: "conv4_in"
  type: "Convolution"
  bottom: "upscore-dsn4-fuse"
  top: "dsn4_in"
  param {
    lr_mult: 0.1
    decay_mult: 1
  }
  param {
    lr_mult: 0.2
    decay_mult: 0
  }
  convolution_param {
    num_output: 1
    kernel_size: 1
    weight_filler {
      type: "constant"
      value: 0.01
    }
  }
}
layer {
  type: "SigmoidCrossEntropyLoss"
  bottom: "dsn4_in"
  bottom: "label"
  top: "dsn4_loss"
  loss_weight: 1
}
layer {
  name: "conv4to5"
  type: "Convolution"
  bottom: "upscore-dsn4-fuse"
  top: "conv4to5"
  param {
    lr_mult: 0.001
    decay_mult: 1
  }
  param {
    lr_mult: 0.002
    decay_mult: 0
  }
  convolution_param {
    num_output: 1
    pad: 1
    kernel_size: 3
    weight_filler {
      type: "gaussian"
      std: 0.001
    }
  }
}
layer {
  name: "score-dsn5"
  type: "Convolution"
  bottom: "conv5_3"
  top: "score-dsn5"
  param {
    lr_mult: 0.01
    decay_mult: 1
  }
  param {
    lr_mult: 0.02
    decay_mult: 0
  }
  convolution_param {
    num_output: 1
    kernel_size: 1
    engine: CAFFE
  }
}
layer {
  name: "upsample_16"
  type: "Deconvolution"
  bottom: "score-dsn5"
  top: "score-dsn5-up"
  param {
    lr_mult: 0
    decay_mult: 1
  }
  param {
    lr_mult: 0
    decay_mult: 0
  }
  convolution_param {
    num_output: 1
    kernel_size: 32
    stride: 16
  }
}
layer {
  name: "crop"
  type: "Crop"
  bottom: "score-dsn5-up"
  bottom: "data"
  top: "upscore-dsn5"
}
layer {
  name: "concat_4to5"
  type: "Concat"
  bottom: "conv4to5"
  bottom: "upscore-dsn5"
  top: "upscore-dsn5-fuse"
  concat_param {
    concat_dim: 1
  }
}
layer {
  name: "conv5_in"
  type: "Convolution"
  bottom: "upscore-dsn5-fuse"
  top: "dsn5_in"
  param {
    lr_mult: 0.1
    decay_mult: 1
  }
  param {
    lr_mult: 0.2
    decay_mult: 0
  }
  convolution_param {
    num_output: 1
    kernel_size: 1
    weight_filler {
      type: "constant"
      value: 0.01
    }
  }
}
layer {
  type: "SigmoidCrossEntropyLoss"
  bottom: "dsn5_in"
  bottom: "label"
  top: "dsn5_loss"
  loss_weight: 1
}
layer {
  name: "concat"
  type: "Concat"
  bottom: "upscore-dsn1"
  bottom: "dsn2_in"
  bottom: "dsn3_in"
  bottom: "dsn4_in"
  bottom: "dsn5_in"
  top: "concat-upscore"
  concat_param {
    concat_dim: 1
  }
}
layer {
  name: "new-score-weighting"
  type: "Convolution"
  bottom: "concat-upscore"
  top: "upscore-fuse"
  param {
    lr_mult: 0.001
    decay_mult: 1
  }
  param {
    lr_mult: 0.002
    decay_mult: 0
  }
  convolution_param {
    num_output: 1
    kernel_size: 1
    weight_filler {
      type: "constant"
      value: 0.2
    }
    engine: CAFFE
  }
}
layer {
  type: "SigmoidCrossEntropyLoss"
  bottom: "upscore-fuse"
  bottom: "label"
  top: "fuse_loss"
  loss_weight: 1
}
I0125 16:25:02.267812 22613 layer_factory.hpp:76] Creating layer data
I0125 16:25:02.267837 22613 net.cpp:111] Creating Layer data
I0125 16:25:02.267844 22613 net.cpp:434] data -> data
I0125 16:25:02.267858 22613 net.cpp:434] data -> label
I0125 16:25:02.267874 22613 image_labelmap_data_layer.cpp:40] Opening file ../../data/HED-BSDS/train_pair.lst
I0125 16:25:02.293822 22613 image_labelmap_data_layer.cpp:50] Shuffling data
I0125 16:25:02.303297 22613 image_labelmap_data_layer.cpp:55] A total of 28800 images.
I0125 16:25:02.304283 22613 image_labelmap_data_layer.cpp:109] output data size: 1,3,192,193
I0125 16:25:02.304296 22613 image_labelmap_data_layer.cpp:112] output label size: 1,1,192,193
I0125 16:25:02.313421 22613 net.cpp:156] Setting up data
I0125 16:25:02.313441 22613 net.cpp:164] Top shape: 1 3 192 193 (111168)
I0125 16:25:02.313447 22613 net.cpp:164] Top shape: 1 1 192 193 (37056)
I0125 16:25:02.313454 22613 layer_factory.hpp:76] Creating layer data_data_0_split
I0125 16:25:02.313477 22613 net.cpp:111] Creating Layer data_data_0_split
I0125 16:25:02.313483 22613 net.cpp:478] data_data_0_split <- data
I0125 16:25:02.313493 22613 net.cpp:434] data_data_0_split -> data_data_0_split_0
I0125 16:25:02.313504 22613 net.cpp:434] data_data_0_split -> data_data_0_split_1
I0125 16:25:02.313513 22613 net.cpp:434] data_data_0_split -> data_data_0_split_2
I0125 16:25:02.313521 22613 net.cpp:434] data_data_0_split -> data_data_0_split_3
I0125 16:25:02.313532 22613 net.cpp:434] data_data_0_split -> data_data_0_split_4
I0125 16:25:02.313540 22613 net.cpp:434] data_data_0_split -> data_data_0_split_5
I0125 16:25:02.313549 22613 net.cpp:156] Setting up data_data_0_split
I0125 16:25:02.313555 22613 net.cpp:164] Top shape: 1 3 192 193 (111168)
I0125 16:25:02.313560 22613 net.cpp:164] Top shape: 1 3 192 193 (111168)
I0125 16:25:02.313565 22613 net.cpp:164] Top shape: 1 3 192 193 (111168)
I0125 16:25:02.313570 22613 net.cpp:164] Top shape: 1 3 192 193 (111168)
I0125 16:25:02.313573 22613 net.cpp:164] Top shape: 1 3 192 193 (111168)
I0125 16:25:02.313577 22613 net.cpp:164] Top shape: 1 3 192 193 (111168)
I0125 16:25:02.313581 22613 layer_factory.hpp:76] Creating layer label_data_1_split
I0125 16:25:02.313587 22613 net.cpp:111] Creating Layer label_data_1_split
I0125 16:25:02.313591 22613 net.cpp:478] label_data_1_split <- label
I0125 16:25:02.313597 22613 net.cpp:434] label_data_1_split -> label_data_1_split_0
I0125 16:25:02.313607 22613 net.cpp:434] label_data_1_split -> label_data_1_split_1
I0125 16:25:02.313616 22613 net.cpp:434] label_data_1_split -> label_data_1_split_2
I0125 16:25:02.313622 22613 net.cpp:434] label_data_1_split -> label_data_1_split_3
I0125 16:25:02.313628 22613 net.cpp:434] label_data_1_split -> label_data_1_split_4
I0125 16:25:02.313642 22613 net.cpp:434] label_data_1_split -> label_data_1_split_5
I0125 16:25:02.313652 22613 net.cpp:156] Setting up label_data_1_split
I0125 16:25:02.313657 22613 net.cpp:164] Top shape: 1 1 192 193 (37056)
I0125 16:25:02.313661 22613 net.cpp:164] Top shape: 1 1 192 193 (37056)
I0125 16:25:02.313665 22613 net.cpp:164] Top shape: 1 1 192 193 (37056)
I0125 16:25:02.313669 22613 net.cpp:164] Top shape: 1 1 192 193 (37056)
I0125 16:25:02.313674 22613 net.cpp:164] Top shape: 1 1 192 193 (37056)
I0125 16:25:02.313678 22613 net.cpp:164] Top shape: 1 1 192 193 (37056)
I0125 16:25:02.313683 22613 layer_factory.hpp:76] Creating layer conv1_1
I0125 16:25:02.313690 22613 net.cpp:111] Creating Layer conv1_1
I0125 16:25:02.313694 22613 net.cpp:478] conv1_1 <- data_data_0_split_0
I0125 16:25:02.313700 22613 net.cpp:434] conv1_1 -> conv1_1
I0125 16:25:02.316267 22613 net.cpp:156] Setting up conv1_1
I0125 16:25:02.316319 22613 net.cpp:164] Top shape: 1 64 260 261 (4343040)
I0125 16:25:02.316350 22613 layer_factory.hpp:76] Creating layer relu1_1
I0125 16:25:02.316380 22613 net.cpp:111] Creating Layer relu1_1
I0125 16:25:02.316390 22613 net.cpp:478] relu1_1 <- conv1_1
I0125 16:25:02.316403 22613 net.cpp:420] relu1_1 -> conv1_1 (in-place)
I0125 16:25:02.316421 22613 net.cpp:156] Setting up relu1_1
I0125 16:25:02.316432 22613 net.cpp:164] Top shape: 1 64 260 261 (4343040)
I0125 16:25:02.316439 22613 layer_factory.hpp:76] Creating layer conv1_2
I0125 16:25:02.316453 22613 net.cpp:111] Creating Layer conv1_2
I0125 16:25:02.316460 22613 net.cpp:478] conv1_2 <- conv1_1
I0125 16:25:02.316475 22613 net.cpp:434] conv1_2 -> conv1_2
I0125 16:25:02.316846 22613 net.cpp:156] Setting up conv1_2
I0125 16:25:02.316869 22613 net.cpp:164] Top shape: 1 64 260 261 (4343040)
I0125 16:25:02.316886 22613 layer_factory.hpp:76] Creating layer relu1_2
I0125 16:25:02.316898 22613 net.cpp:111] Creating Layer relu1_2
I0125 16:25:02.316907 22613 net.cpp:478] relu1_2 <- conv1_2
I0125 16:25:02.316918 22613 net.cpp:420] relu1_2 -> conv1_2 (in-place)
I0125 16:25:02.316932 22613 net.cpp:156] Setting up relu1_2
I0125 16:25:02.316941 22613 net.cpp:164] Top shape: 1 64 260 261 (4343040)
I0125 16:25:02.316948 22613 layer_factory.hpp:76] Creating layer conv1_2_relu1_2_0_split
I0125 16:25:02.316964 22613 net.cpp:111] Creating Layer conv1_2_relu1_2_0_split
I0125 16:25:02.316972 22613 net.cpp:478] conv1_2_relu1_2_0_split <- conv1_2
I0125 16:25:02.316983 22613 net.cpp:434] conv1_2_relu1_2_0_split -> conv1_2_relu1_2_0_split_0
I0125 16:25:02.317004 22613 net.cpp:434] conv1_2_relu1_2_0_split -> conv1_2_relu1_2_0_split_1
I0125 16:25:02.317020 22613 net.cpp:156] Setting up conv1_2_relu1_2_0_split
I0125 16:25:02.317031 22613 net.cpp:164] Top shape: 1 64 260 261 (4343040)
I0125 16:25:02.317039 22613 net.cpp:164] Top shape: 1 64 260 261 (4343040)
I0125 16:25:02.317047 22613 layer_factory.hpp:76] Creating layer pool1
I0125 16:25:02.317066 22613 net.cpp:111] Creating Layer pool1
I0125 16:25:02.317087 22613 net.cpp:478] pool1 <- conv1_2_relu1_2_0_split_0
I0125 16:25:02.317100 22613 net.cpp:434] pool1 -> pool1
I0125 16:25:02.317117 22613 net.cpp:156] Setting up pool1
I0125 16:25:02.317126 22613 net.cpp:164] Top shape: 1 64 130 131 (1089920)
I0125 16:25:02.317132 22613 layer_factory.hpp:76] Creating layer conv2_1
I0125 16:25:02.317144 22613 net.cpp:111] Creating Layer conv2_1
I0125 16:25:02.317150 22613 net.cpp:478] conv2_1 <- pool1
I0125 16:25:02.317162 22613 net.cpp:434] conv2_1 -> conv2_1
I0125 16:25:02.318375 22613 net.cpp:156] Setting up conv2_1
I0125 16:25:02.318406 22613 net.cpp:164] Top shape: 1 128 130 131 (2179840)
I0125 16:25:02.318425 22613 layer_factory.hpp:76] Creating layer relu2_1
I0125 16:25:02.318439 22613 net.cpp:111] Creating Layer relu2_1
I0125 16:25:02.318446 22613 net.cpp:478] relu2_1 <- conv2_1
I0125 16:25:02.318457 22613 net.cpp:420] relu2_1 -> conv2_1 (in-place)
I0125 16:25:02.318470 22613 net.cpp:156] Setting up relu2_1
I0125 16:25:02.318480 22613 net.cpp:164] Top shape: 1 128 130 131 (2179840)
I0125 16:25:02.318486 22613 layer_factory.hpp:76] Creating layer conv2_2
I0125 16:25:02.318513 22613 net.cpp:111] Creating Layer conv2_2
I0125 16:25:02.318521 22613 net.cpp:478] conv2_2 <- conv2_1
I0125 16:25:02.318533 22613 net.cpp:434] conv2_2 -> conv2_2
I0125 16:25:02.318903 22613 net.cpp:156] Setting up conv2_2
I0125 16:25:02.318923 22613 net.cpp:164] Top shape: 1 128 130 131 (2179840)
I0125 16:25:02.318936 22613 layer_factory.hpp:76] Creating layer relu2_2
I0125 16:25:02.318948 22613 net.cpp:111] Creating Layer relu2_2
I0125 16:25:02.318954 22613 net.cpp:478] relu2_2 <- conv2_2
I0125 16:25:02.318964 22613 net.cpp:420] relu2_2 -> conv2_2 (in-place)
I0125 16:25:02.318975 22613 net.cpp:156] Setting up relu2_2
I0125 16:25:02.318984 22613 net.cpp:164] Top shape: 1 128 130 131 (2179840)
I0125 16:25:02.318991 22613 layer_factory.hpp:76] Creating layer conv2_2_relu2_2_0_split
I0125 16:25:02.319005 22613 net.cpp:111] Creating Layer conv2_2_relu2_2_0_split
I0125 16:25:02.319011 22613 net.cpp:478] conv2_2_relu2_2_0_split <- conv2_2
I0125 16:25:02.319021 22613 net.cpp:434] conv2_2_relu2_2_0_split -> conv2_2_relu2_2_0_split_0
I0125 16:25:02.319033 22613 net.cpp:434] conv2_2_relu2_2_0_split -> conv2_2_relu2_2_0_split_1
I0125 16:25:02.319046 22613 net.cpp:156] Setting up conv2_2_relu2_2_0_split
I0125 16:25:02.319056 22613 net.cpp:164] Top shape: 1 128 130 131 (2179840)
I0125 16:25:02.319063 22613 net.cpp:164] Top shape: 1 128 130 131 (2179840)
I0125 16:25:02.319069 22613 layer_factory.hpp:76] Creating layer pool2
I0125 16:25:02.319080 22613 net.cpp:111] Creating Layer pool2
I0125 16:25:02.319087 22613 net.cpp:478] pool2 <- conv2_2_relu2_2_0_split_0
I0125 16:25:02.319098 22613 net.cpp:434] pool2 -> pool2
I0125 16:25:02.319113 22613 net.cpp:156] Setting up pool2
I0125 16:25:02.319121 22613 net.cpp:164] Top shape: 1 128 65 66 (549120)
I0125 16:25:02.319128 22613 layer_factory.hpp:76] Creating layer conv3_1
I0125 16:25:02.319140 22613 net.cpp:111] Creating Layer conv3_1
I0125 16:25:02.319147 22613 net.cpp:478] conv3_1 <- pool2
I0125 16:25:02.319157 22613 net.cpp:434] conv3_1 -> conv3_1
I0125 16:25:02.321689 22613 net.cpp:156] Setting up conv3_1
I0125 16:25:02.321718 22613 net.cpp:164] Top shape: 1 256 65 66 (1098240)
I0125 16:25:02.321743 22613 layer_factory.hpp:76] Creating layer relu3_1
I0125 16:25:02.321764 22613 net.cpp:111] Creating Layer relu3_1
I0125 16:25:02.321774 22613 net.cpp:478] relu3_1 <- conv3_1
I0125 16:25:02.321808 22613 net.cpp:420] relu3_1 -> conv3_1 (in-place)
I0125 16:25:02.321822 22613 net.cpp:156] Setting up relu3_1
I0125 16:25:02.321833 22613 net.cpp:164] Top shape: 1 256 65 66 (1098240)
I0125 16:25:02.321841 22613 layer_factory.hpp:76] Creating layer conv3_2
I0125 16:25:02.321851 22613 net.cpp:111] Creating Layer conv3_2
I0125 16:25:02.321858 22613 net.cpp:478] conv3_2 <- conv3_1
I0125 16:25:02.321869 22613 net.cpp:434] conv3_2 -> conv3_2
I0125 16:25:02.324517 22613 net.cpp:156] Setting up conv3_2
I0125 16:25:02.324545 22613 net.cpp:164] Top shape: 1 256 65 66 (1098240)
I0125 16:25:02.324580 22613 layer_factory.hpp:76] Creating layer relu3_2
I0125 16:25:02.324594 22613 net.cpp:111] Creating Layer relu3_2
I0125 16:25:02.324600 22613 net.cpp:478] relu3_2 <- conv3_2
I0125 16:25:02.324611 22613 net.cpp:420] relu3_2 -> conv3_2 (in-place)
I0125 16:25:02.324623 22613 net.cpp:156] Setting up relu3_2
I0125 16:25:02.324633 22613 net.cpp:164] Top shape: 1 256 65 66 (1098240)
I0125 16:25:02.324640 22613 layer_factory.hpp:76] Creating layer conv3_3
I0125 16:25:02.324651 22613 net.cpp:111] Creating Layer conv3_3
I0125 16:25:02.324657 22613 net.cpp:478] conv3_3 <- conv3_2
I0125 16:25:02.324668 22613 net.cpp:434] conv3_3 -> conv3_3
I0125 16:25:02.327258 22613 net.cpp:156] Setting up conv3_3
I0125 16:25:02.327286 22613 net.cpp:164] Top shape: 1 256 65 66 (1098240)
I0125 16:25:02.327301 22613 layer_factory.hpp:76] Creating layer relu3_3
I0125 16:25:02.327312 22613 net.cpp:111] Creating Layer relu3_3
I0125 16:25:02.327320 22613 net.cpp:478] relu3_3 <- conv3_3
I0125 16:25:02.327330 22613 net.cpp:420] relu3_3 -> conv3_3 (in-place)
I0125 16:25:02.327343 22613 net.cpp:156] Setting up relu3_3
I0125 16:25:02.327361 22613 net.cpp:164] Top shape: 1 256 65 66 (1098240)
I0125 16:25:02.327368 22613 layer_factory.hpp:76] Creating layer conv3_3_relu3_3_0_split
I0125 16:25:02.327379 22613 net.cpp:111] Creating Layer conv3_3_relu3_3_0_split
I0125 16:25:02.327386 22613 net.cpp:478] conv3_3_relu3_3_0_split <- conv3_3
I0125 16:25:02.327400 22613 net.cpp:434] conv3_3_relu3_3_0_split -> conv3_3_relu3_3_0_split_0
I0125 16:25:02.327414 22613 net.cpp:434] conv3_3_relu3_3_0_split -> conv3_3_relu3_3_0_split_1
I0125 16:25:02.327428 22613 net.cpp:156] Setting up conv3_3_relu3_3_0_split
I0125 16:25:02.327440 22613 net.cpp:164] Top shape: 1 256 65 66 (1098240)
I0125 16:25:02.327448 22613 net.cpp:164] Top shape: 1 256 65 66 (1098240)
I0125 16:25:02.327455 22613 layer_factory.hpp:76] Creating layer pool3
I0125 16:25:02.327466 22613 net.cpp:111] Creating Layer pool3
I0125 16:25:02.327472 22613 net.cpp:478] pool3 <- conv3_3_relu3_3_0_split_0
I0125 16:25:02.327483 22613 net.cpp:434] pool3 -> pool3
I0125 16:25:02.327498 22613 net.cpp:156] Setting up pool3
I0125 16:25:02.327507 22613 net.cpp:164] Top shape: 1 256 33 33 (278784)
I0125 16:25:02.327513 22613 layer_factory.hpp:76] Creating layer conv4_1
I0125 16:25:02.327527 22613 net.cpp:111] Creating Layer conv4_1
I0125 16:25:02.327534 22613 net.cpp:478] conv4_1 <- pool3
I0125 16:25:02.327544 22613 net.cpp:434] conv4_1 -> conv4_1
I0125 16:25:02.333957 22613 net.cpp:156] Setting up conv4_1
I0125 16:25:02.333999 22613 net.cpp:164] Top shape: 1 512 33 33 (557568)
I0125 16:25:02.334020 22613 layer_factory.hpp:76] Creating layer relu4_1
I0125 16:25:02.334036 22613 net.cpp:111] Creating Layer relu4_1
I0125 16:25:02.334044 22613 net.cpp:478] relu4_1 <- conv4_1
I0125 16:25:02.334056 22613 net.cpp:420] relu4_1 -> conv4_1 (in-place)
I0125 16:25:02.334072 22613 net.cpp:156] Setting up relu4_1
I0125 16:25:02.334080 22613 net.cpp:164] Top shape: 1 512 33 33 (557568)
I0125 16:25:02.334086 22613 layer_factory.hpp:76] Creating layer conv4_2
I0125 16:25:02.334098 22613 net.cpp:111] Creating Layer conv4_2
I0125 16:25:02.334105 22613 net.cpp:478] conv4_2 <- conv4_1
I0125 16:25:02.334115 22613 net.cpp:434] conv4_2 -> conv4_2
I0125 16:25:02.343955 22613 net.cpp:156] Setting up conv4_2
I0125 16:25:02.343992 22613 net.cpp:164] Top shape: 1 512 33 33 (557568)
I0125 16:25:02.344018 22613 layer_factory.hpp:76] Creating layer relu4_2
I0125 16:25:02.344034 22613 net.cpp:111] Creating Layer relu4_2
I0125 16:25:02.344043 22613 net.cpp:478] relu4_2 <- conv4_2
I0125 16:25:02.344058 22613 net.cpp:420] relu4_2 -> conv4_2 (in-place)
I0125 16:25:02.344081 22613 net.cpp:156] Setting up relu4_2
I0125 16:25:02.344090 22613 net.cpp:164] Top shape: 1 512 33 33 (557568)
I0125 16:25:02.344096 22613 layer_factory.hpp:76] Creating layer conv4_3
I0125 16:25:02.344110 22613 net.cpp:111] Creating Layer conv4_3
I0125 16:25:02.344116 22613 net.cpp:478] conv4_3 <- conv4_2
I0125 16:25:02.344130 22613 net.cpp:434] conv4_3 -> conv4_3
I0125 16:25:02.353229 22613 net.cpp:156] Setting up conv4_3
I0125 16:25:02.353269 22613 net.cpp:164] Top shape: 1 512 33 33 (557568)
I0125 16:25:02.353287 22613 layer_factory.hpp:76] Creating layer relu4_3
I0125 16:25:02.353302 22613 net.cpp:111] Creating Layer relu4_3
I0125 16:25:02.353312 22613 net.cpp:478] relu4_3 <- conv4_3
I0125 16:25:02.353324 22613 net.cpp:420] relu4_3 -> conv4_3 (in-place)
I0125 16:25:02.353338 22613 net.cpp:156] Setting up relu4_3
I0125 16:25:02.353348 22613 net.cpp:164] Top shape: 1 512 33 33 (557568)
I0125 16:25:02.353353 22613 layer_factory.hpp:76] Creating layer conv4_3_relu4_3_0_split
I0125 16:25:02.353371 22613 net.cpp:111] Creating Layer conv4_3_relu4_3_0_split
I0125 16:25:02.353379 22613 net.cpp:478] conv4_3_relu4_3_0_split <- conv4_3
I0125 16:25:02.353389 22613 net.cpp:434] conv4_3_relu4_3_0_split -> conv4_3_relu4_3_0_split_0
I0125 16:25:02.353404 22613 net.cpp:434] conv4_3_relu4_3_0_split -> conv4_3_relu4_3_0_split_1
I0125 16:25:02.353416 22613 net.cpp:156] Setting up conv4_3_relu4_3_0_split
I0125 16:25:02.353425 22613 net.cpp:164] Top shape: 1 512 33 33 (557568)
I0125 16:25:02.353446 22613 net.cpp:164] Top shape: 1 512 33 33 (557568)
I0125 16:25:02.353453 22613 layer_factory.hpp:76] Creating layer pool4
I0125 16:25:02.353466 22613 net.cpp:111] Creating Layer pool4
I0125 16:25:02.353473 22613 net.cpp:478] pool4 <- conv4_3_relu4_3_0_split_0
I0125 16:25:02.353484 22613 net.cpp:434] pool4 -> pool4
I0125 16:25:02.353502 22613 net.cpp:156] Setting up pool4
I0125 16:25:02.353509 22613 net.cpp:164] Top shape: 1 512 17 17 (147968)
I0125 16:25:02.353515 22613 layer_factory.hpp:76] Creating layer conv5_1
I0125 16:25:02.353531 22613 net.cpp:111] Creating Layer conv5_1
I0125 16:25:02.353538 22613 net.cpp:478] conv5_1 <- pool4
I0125 16:25:02.353548 22613 net.cpp:434] conv5_1 -> conv5_1
I0125 16:25:02.362632 22613 net.cpp:156] Setting up conv5_1
I0125 16:25:02.362668 22613 net.cpp:164] Top shape: 1 512 17 17 (147968)
I0125 16:25:02.362684 22613 layer_factory.hpp:76] Creating layer relu5_1
I0125 16:25:02.362720 22613 net.cpp:111] Creating Layer relu5_1
I0125 16:25:02.362730 22613 net.cpp:478] relu5_1 <- conv5_1
I0125 16:25:02.362742 22613 net.cpp:420] relu5_1 -> conv5_1 (in-place)
I0125 16:25:02.362756 22613 net.cpp:156] Setting up relu5_1
I0125 16:25:02.362764 22613 net.cpp:164] Top shape: 1 512 17 17 (147968)
I0125 16:25:02.362771 22613 layer_factory.hpp:76] Creating layer conv5_2
I0125 16:25:02.362781 22613 net.cpp:111] Creating Layer conv5_2
I0125 16:25:02.362787 22613 net.cpp:478] conv5_2 <- conv5_1
I0125 16:25:02.362797 22613 net.cpp:434] conv5_2 -> conv5_2
I0125 16:25:02.371172 22613 net.cpp:156] Setting up conv5_2
I0125 16:25:02.371208 22613 net.cpp:164] Top shape: 1 512 17 17 (147968)
I0125 16:25:02.371223 22613 layer_factory.hpp:76] Creating layer relu5_2
I0125 16:25:02.371235 22613 net.cpp:111] Creating Layer relu5_2
I0125 16:25:02.371243 22613 net.cpp:478] relu5_2 <- conv5_2
I0125 16:25:02.371256 22613 net.cpp:420] relu5_2 -> conv5_2 (in-place)
I0125 16:25:02.371268 22613 net.cpp:156] Setting up relu5_2
I0125 16:25:02.371278 22613 net.cpp:164] Top shape: 1 512 17 17 (147968)
I0125 16:25:02.371282 22613 layer_factory.hpp:76] Creating layer conv5_3
I0125 16:25:02.371294 22613 net.cpp:111] Creating Layer conv5_3
I0125 16:25:02.371299 22613 net.cpp:478] conv5_3 <- conv5_2
I0125 16:25:02.371309 22613 net.cpp:434] conv5_3 -> conv5_3
I0125 16:25:02.379192 22613 net.cpp:156] Setting up conv5_3
I0125 16:25:02.379220 22613 net.cpp:164] Top shape: 1 512 17 17 (147968)
I0125 16:25:02.379232 22613 layer_factory.hpp:76] Creating layer relu5_3
I0125 16:25:02.379243 22613 net.cpp:111] Creating Layer relu5_3
I0125 16:25:02.379251 22613 net.cpp:478] relu5_3 <- conv5_3
I0125 16:25:02.379259 22613 net.cpp:420] relu5_3 -> conv5_3 (in-place)
I0125 16:25:02.379271 22613 net.cpp:156] Setting up relu5_3
I0125 16:25:02.379278 22613 net.cpp:164] Top shape: 1 512 17 17 (147968)
I0125 16:25:02.379283 22613 layer_factory.hpp:76] Creating layer score-dsn1
I0125 16:25:02.379294 22613 net.cpp:111] Creating Layer score-dsn1
I0125 16:25:02.379302 22613 net.cpp:478] score-dsn1 <- conv1_2_relu1_2_0_split_1
I0125 16:25:02.379312 22613 net.cpp:434] score-dsn1 -> score-dsn1-up
I0125 16:25:02.379509 22613 net.cpp:156] Setting up score-dsn1
I0125 16:25:02.379523 22613 net.cpp:164] Top shape: 1 1 260 261 (67860)
I0125 16:25:02.379534 22613 layer_factory.hpp:76] Creating layer crop
I0125 16:25:02.379542 22613 net.cpp:111] Creating Layer crop
I0125 16:25:02.379549 22613 net.cpp:478] crop <- score-dsn1-up
I0125 16:25:02.379557 22613 net.cpp:478] crop <- data_data_0_split_1
I0125 16:25:02.379567 22613 net.cpp:434] crop -> upscore-dsn1
I0125 16:25:02.379622 22613 net.cpp:156] Setting up crop
I0125 16:25:02.379631 22613 net.cpp:164] Top shape: 1 1 192 193 (37056)
I0125 16:25:02.379637 22613 layer_factory.hpp:76] Creating layer upscore-dsn1_crop_0_split
I0125 16:25:02.379647 22613 net.cpp:111] Creating Layer upscore-dsn1_crop_0_split
I0125 16:25:02.379653 22613 net.cpp:478] upscore-dsn1_crop_0_split <- upscore-dsn1
I0125 16:25:02.379662 22613 net.cpp:434] upscore-dsn1_crop_0_split -> upscore-dsn1_crop_0_split_0
I0125 16:25:02.379689 22613 net.cpp:434] upscore-dsn1_crop_0_split -> upscore-dsn1_crop_0_split_1
I0125 16:25:02.379701 22613 net.cpp:434] upscore-dsn1_crop_0_split -> upscore-dsn1_crop_0_split_2
I0125 16:25:02.379712 22613 net.cpp:156] Setting up upscore-dsn1_crop_0_split
I0125 16:25:02.379719 22613 net.cpp:164] Top shape: 1 1 192 193 (37056)
I0125 16:25:02.379726 22613 net.cpp:164] Top shape: 1 1 192 193 (37056)
I0125 16:25:02.379732 22613 net.cpp:164] Top shape: 1 1 192 193 (37056)
I0125 16:25:02.379737 22613 layer_factory.hpp:76] Creating layer 
I0125 16:25:02.379752 22613 net.cpp:111] Creating Layer 
I0125 16:25:02.379757 22613 net.cpp:478]  <- upscore-dsn1_crop_0_split_0
I0125 16:25:02.379765 22613 net.cpp:478]  <- label_data_1_split_0
I0125 16:25:02.379777 22613 net.cpp:434]  -> dsn1_loss
I0125 16:25:02.379914 22613 net.cpp:156] Setting up 
I0125 16:25:02.379925 22613 net.cpp:164] Top shape: (1)
I0125 16:25:02.379930 22613 net.cpp:169]     with loss weight 1
I0125 16:25:02.379951 22613 layer_factory.hpp:76] Creating layer score-dsn2
I0125 16:25:02.379966 22613 net.cpp:111] Creating Layer score-dsn2
I0125 16:25:02.379971 22613 net.cpp:478] score-dsn2 <- conv2_2_relu2_2_0_split_1
I0125 16:25:02.379981 22613 net.cpp:434] score-dsn2 -> score-dsn2
I0125 16:25:02.380089 22613 net.cpp:156] Setting up score-dsn2
I0125 16:25:02.380101 22613 net.cpp:164] Top shape: 1 1 130 131 (17030)
I0125 16:25:02.380110 22613 layer_factory.hpp:76] Creating layer upsample_2
I0125 16:25:02.380120 22613 net.cpp:111] Creating Layer upsample_2
I0125 16:25:02.380126 22613 net.cpp:478] upsample_2 <- score-dsn2
I0125 16:25:02.380137 22613 net.cpp:434] upsample_2 -> score-dsn2-up
I0125 16:25:02.380321 22613 net.cpp:156] Setting up upsample_2
I0125 16:25:02.380333 22613 net.cpp:164] Top shape: 1 1 262 264 (69168)
I0125 16:25:02.380342 22613 layer_factory.hpp:76] Creating layer crop
I0125 16:25:02.380352 22613 net.cpp:111] Creating Layer crop
I0125 16:25:02.380357 22613 net.cpp:478] crop <- score-dsn2-up
I0125 16:25:02.380365 22613 net.cpp:478] crop <- data_data_0_split_2
I0125 16:25:02.380373 22613 net.cpp:434] crop -> upscore-dsn2
I0125 16:25:02.380426 22613 net.cpp:156] Setting up crop
I0125 16:25:02.380435 22613 net.cpp:164] Top shape: 1 1 192 193 (37056)
I0125 16:25:02.380440 22613 layer_factory.hpp:76] Creating layer concat_1to2
I0125 16:25:02.380451 22613 net.cpp:111] Creating Layer concat_1to2
I0125 16:25:02.380456 22613 net.cpp:478] concat_1to2 <- upscore-dsn1_crop_0_split_1
I0125 16:25:02.380465 22613 net.cpp:478] concat_1to2 <- upscore-dsn2
I0125 16:25:02.380472 22613 net.cpp:434] concat_1to2 -> upscore-dsn2-fuse
I0125 16:25:02.380486 22613 net.cpp:156] Setting up concat_1to2
I0125 16:25:02.380492 22613 net.cpp:164] Top shape: 1 2 192 193 (74112)
I0125 16:25:02.380497 22613 layer_factory.hpp:76] Creating layer upscore-dsn2-fuse_concat_1to2_0_split
I0125 16:25:02.380506 22613 net.cpp:111] Creating Layer upscore-dsn2-fuse_concat_1to2_0_split
I0125 16:25:02.380511 22613 net.cpp:478] upscore-dsn2-fuse_concat_1to2_0_split <- upscore-dsn2-fuse
I0125 16:25:02.380520 22613 net.cpp:434] upscore-dsn2-fuse_concat_1to2_0_split -> upscore-dsn2-fuse_concat_1to2_0_split_0
I0125 16:25:02.380530 22613 net.cpp:434] upscore-dsn2-fuse_concat_1to2_0_split -> upscore-dsn2-fuse_concat_1to2_0_split_1
I0125 16:25:02.380542 22613 net.cpp:156] Setting up upscore-dsn2-fuse_concat_1to2_0_split
I0125 16:25:02.380561 22613 net.cpp:164] Top shape: 1 2 192 193 (74112)
I0125 16:25:02.380570 22613 net.cpp:164] Top shape: 1 2 192 193 (74112)
I0125 16:25:02.380576 22613 layer_factory.hpp:76] Creating layer conv2_in
I0125 16:25:02.380590 22613 net.cpp:111] Creating Layer conv2_in
I0125 16:25:02.380597 22613 net.cpp:478] conv2_in <- upscore-dsn2-fuse_concat_1to2_0_split_0
I0125 16:25:02.380607 22613 net.cpp:434] conv2_in -> dsn2_in
I0125 16:25:02.380774 22613 net.cpp:156] Setting up conv2_in
I0125 16:25:02.380785 22613 net.cpp:164] Top shape: 1 1 192 193 (37056)
I0125 16:25:02.380805 22613 layer_factory.hpp:76] Creating layer dsn2_in_conv2_in_0_split
I0125 16:25:02.380815 22613 net.cpp:111] Creating Layer dsn2_in_conv2_in_0_split
I0125 16:25:02.380828 22613 net.cpp:478] dsn2_in_conv2_in_0_split <- dsn2_in
I0125 16:25:02.380838 22613 net.cpp:434] dsn2_in_conv2_in_0_split -> dsn2_in_conv2_in_0_split_0
I0125 16:25:02.380857 22613 net.cpp:434] dsn2_in_conv2_in_0_split -> dsn2_in_conv2_in_0_split_1
I0125 16:25:02.380868 22613 net.cpp:156] Setting up dsn2_in_conv2_in_0_split
I0125 16:25:02.380877 22613 net.cpp:164] Top shape: 1 1 192 193 (37056)
I0125 16:25:02.380882 22613 net.cpp:164] Top shape: 1 1 192 193 (37056)
I0125 16:25:02.380887 22613 layer_factory.hpp:76] Creating layer 
I0125 16:25:02.380897 22613 net.cpp:111] Creating Layer 
I0125 16:25:02.380903 22613 net.cpp:478]  <- dsn2_in_conv2_in_0_split_0
I0125 16:25:02.380909 22613 net.cpp:478]  <- label_data_1_split_1
I0125 16:25:02.380918 22613 net.cpp:434]  -> dsn2_loss
I0125 16:25:02.381037 22613 net.cpp:156] Setting up 
I0125 16:25:02.381048 22613 net.cpp:164] Top shape: (1)
I0125 16:25:02.381053 22613 net.cpp:169]     with loss weight 1
I0125 16:25:02.381063 22613 layer_factory.hpp:76] Creating layer conv2to3
I0125 16:25:02.381073 22613 net.cpp:111] Creating Layer conv2to3
I0125 16:25:02.381079 22613 net.cpp:478] conv2to3 <- upscore-dsn2-fuse_concat_1to2_0_split_1
I0125 16:25:02.381090 22613 net.cpp:434] conv2to3 -> conv2to3
I0125 16:25:02.382020 22613 net.cpp:156] Setting up conv2to3
I0125 16:25:02.382041 22613 net.cpp:164] Top shape: 1 1 192 193 (37056)
I0125 16:25:02.382053 22613 layer_factory.hpp:76] Creating layer score-dsn3
I0125 16:25:02.382067 22613 net.cpp:111] Creating Layer score-dsn3
I0125 16:25:02.382074 22613 net.cpp:478] score-dsn3 <- conv3_3_relu3_3_0_split_1
I0125 16:25:02.382084 22613 net.cpp:434] score-dsn3 -> score-dsn3
I0125 16:25:02.382182 22613 net.cpp:156] Setting up score-dsn3
I0125 16:25:02.382194 22613 net.cpp:164] Top shape: 1 1 65 66 (4290)
I0125 16:25:02.382202 22613 layer_factory.hpp:76] Creating layer upsample_4
I0125 16:25:02.382210 22613 net.cpp:111] Creating Layer upsample_4
I0125 16:25:02.382216 22613 net.cpp:478] upsample_4 <- score-dsn3
I0125 16:25:02.382226 22613 net.cpp:434] upsample_4 -> score-dsn3-up
I0125 16:25:02.382419 22613 net.cpp:156] Setting up upsample_4
I0125 16:25:02.382431 22613 net.cpp:164] Top shape: 1 1 264 268 (70752)
I0125 16:25:02.382441 22613 layer_factory.hpp:76] Creating layer crop
I0125 16:25:02.382448 22613 net.cpp:111] Creating Layer crop
I0125 16:25:02.382454 22613 net.cpp:478] crop <- score-dsn3-up
I0125 16:25:02.382462 22613 net.cpp:478] crop <- data_data_0_split_3
I0125 16:25:02.382469 22613 net.cpp:434] crop -> upscore-dsn3
I0125 16:25:02.382532 22613 net.cpp:156] Setting up crop
I0125 16:25:02.382540 22613 net.cpp:164] Top shape: 1 1 192 193 (37056)
I0125 16:25:02.382546 22613 layer_factory.hpp:76] Creating layer concat_2to3
I0125 16:25:02.382555 22613 net.cpp:111] Creating Layer concat_2to3
I0125 16:25:02.382560 22613 net.cpp:478] concat_2to3 <- conv2to3
I0125 16:25:02.382567 22613 net.cpp:478] concat_2to3 <- upscore-dsn3
I0125 16:25:02.382575 22613 net.cpp:434] concat_2to3 -> upscore-dsn3-fuse
I0125 16:25:02.382586 22613 net.cpp:156] Setting up concat_2to3
I0125 16:25:02.382592 22613 net.cpp:164] Top shape: 1 2 192 193 (74112)
I0125 16:25:02.382597 22613 layer_factory.hpp:76] Creating layer upscore-dsn3-fuse_concat_2to3_0_split
I0125 16:25:02.382606 22613 net.cpp:111] Creating Layer upscore-dsn3-fuse_concat_2to3_0_split
I0125 16:25:02.382611 22613 net.cpp:478] upscore-dsn3-fuse_concat_2to3_0_split <- upscore-dsn3-fuse
I0125 16:25:02.382618 22613 net.cpp:434] upscore-dsn3-fuse_concat_2to3_0_split -> upscore-dsn3-fuse_concat_2to3_0_split_0
I0125 16:25:02.382628 22613 net.cpp:434] upscore-dsn3-fuse_concat_2to3_0_split -> upscore-dsn3-fuse_concat_2to3_0_split_1
I0125 16:25:02.382640 22613 net.cpp:156] Setting up upscore-dsn3-fuse_concat_2to3_0_split
I0125 16:25:02.382648 22613 net.cpp:164] Top shape: 1 2 192 193 (74112)
I0125 16:25:02.382654 22613 net.cpp:164] Top shape: 1 2 192 193 (74112)
I0125 16:25:02.382658 22613 layer_factory.hpp:76] Creating layer conv3_in
I0125 16:25:02.382675 22613 net.cpp:111] Creating Layer conv3_in
I0125 16:25:02.382681 22613 net.cpp:478] conv3_in <- upscore-dsn3-fuse_concat_2to3_0_split_0
I0125 16:25:02.382690 22613 net.cpp:434] conv3_in -> dsn3_in
I0125 16:25:02.382805 22613 net.cpp:156] Setting up conv3_in
I0125 16:25:02.382817 22613 net.cpp:164] Top shape: 1 1 192 193 (37056)
I0125 16:25:02.382825 22613 layer_factory.hpp:76] Creating layer dsn3_in_conv3_in_0_split
I0125 16:25:02.382836 22613 net.cpp:111] Creating Layer dsn3_in_conv3_in_0_split
I0125 16:25:02.382843 22613 net.cpp:478] dsn3_in_conv3_in_0_split <- dsn3_in
I0125 16:25:02.382851 22613 net.cpp:434] dsn3_in_conv3_in_0_split -> dsn3_in_conv3_in_0_split_0
I0125 16:25:02.382861 22613 net.cpp:434] dsn3_in_conv3_in_0_split -> dsn3_in_conv3_in_0_split_1
I0125 16:25:02.382889 22613 net.cpp:156] Setting up dsn3_in_conv3_in_0_split
I0125 16:25:02.382897 22613 net.cpp:164] Top shape: 1 1 192 193 (37056)
I0125 16:25:02.382905 22613 net.cpp:164] Top shape: 1 1 192 193 (37056)
I0125 16:25:02.382910 22613 layer_factory.hpp:76] Creating layer 
I0125 16:25:02.382918 22613 net.cpp:111] Creating Layer 
I0125 16:25:02.382923 22613 net.cpp:478]  <- dsn3_in_conv3_in_0_split_0
I0125 16:25:02.382930 22613 net.cpp:478]  <- label_data_1_split_2
I0125 16:25:02.382938 22613 net.cpp:434]  -> dsn3_loss
I0125 16:25:02.383029 22613 net.cpp:156] Setting up 
I0125 16:25:02.383039 22613 net.cpp:164] Top shape: (1)
I0125 16:25:02.383044 22613 net.cpp:169]     with loss weight 1
I0125 16:25:02.383054 22613 layer_factory.hpp:76] Creating layer conv3to4
I0125 16:25:02.383069 22613 net.cpp:111] Creating Layer conv3to4
I0125 16:25:02.383074 22613 net.cpp:478] conv3to4 <- upscore-dsn3-fuse_concat_2to3_0_split_1
I0125 16:25:02.383083 22613 net.cpp:434] conv3to4 -> conv3to4
I0125 16:25:02.383193 22613 net.cpp:156] Setting up conv3to4
I0125 16:25:02.383203 22613 net.cpp:164] Top shape: 1 1 192 193 (37056)
I0125 16:25:02.383213 22613 layer_factory.hpp:76] Creating layer score-dsn4
I0125 16:25:02.383224 22613 net.cpp:111] Creating Layer score-dsn4
I0125 16:25:02.383231 22613 net.cpp:478] score-dsn4 <- conv4_3_relu4_3_0_split_1
I0125 16:25:02.383239 22613 net.cpp:434] score-dsn4 -> score-dsn4
I0125 16:25:02.383327 22613 net.cpp:156] Setting up score-dsn4
I0125 16:25:02.383337 22613 net.cpp:164] Top shape: 1 1 33 33 (1089)
I0125 16:25:02.383347 22613 layer_factory.hpp:76] Creating layer upsample_8
I0125 16:25:02.383358 22613 net.cpp:111] Creating Layer upsample_8
I0125 16:25:02.383419 22613 net.cpp:478] upsample_8 <- score-dsn4
I0125 16:25:02.383430 22613 net.cpp:434] upsample_8 -> score-dsn4-up
I0125 16:25:02.383630 22613 net.cpp:156] Setting up upsample_8
I0125 16:25:02.383642 22613 net.cpp:164] Top shape: 1 1 272 272 (73984)
I0125 16:25:02.383651 22613 layer_factory.hpp:76] Creating layer crop
I0125 16:25:02.383661 22613 net.cpp:111] Creating Layer crop
I0125 16:25:02.383666 22613 net.cpp:478] crop <- score-dsn4-up
I0125 16:25:02.383672 22613 net.cpp:478] crop <- data_data_0_split_4
I0125 16:25:02.383683 22613 net.cpp:434] crop -> upscore-dsn4
I0125 16:25:02.383755 22613 net.cpp:156] Setting up crop
I0125 16:25:02.383764 22613 net.cpp:164] Top shape: 1 1 192 193 (37056)
I0125 16:25:02.383769 22613 layer_factory.hpp:76] Creating layer concat_3to4
I0125 16:25:02.383777 22613 net.cpp:111] Creating Layer concat_3to4
I0125 16:25:02.383783 22613 net.cpp:478] concat_3to4 <- conv3to4
I0125 16:25:02.383790 22613 net.cpp:478] concat_3to4 <- upscore-dsn4
I0125 16:25:02.383798 22613 net.cpp:434] concat_3to4 -> upscore-dsn4-fuse
I0125 16:25:02.383808 22613 net.cpp:156] Setting up concat_3to4
I0125 16:25:02.383816 22613 net.cpp:164] Top shape: 1 2 192 193 (74112)
I0125 16:25:02.383821 22613 layer_factory.hpp:76] Creating layer upscore-dsn4-fuse_concat_3to4_0_split
I0125 16:25:02.383828 22613 net.cpp:111] Creating Layer upscore-dsn4-fuse_concat_3to4_0_split
I0125 16:25:02.383833 22613 net.cpp:478] upscore-dsn4-fuse_concat_3to4_0_split <- upscore-dsn4-fuse
I0125 16:25:02.383841 22613 net.cpp:434] upscore-dsn4-fuse_concat_3to4_0_split -> upscore-dsn4-fuse_concat_3to4_0_split_0
I0125 16:25:02.383858 22613 net.cpp:434] upscore-dsn4-fuse_concat_3to4_0_split -> upscore-dsn4-fuse_concat_3to4_0_split_1
I0125 16:25:02.383870 22613 net.cpp:156] Setting up upscore-dsn4-fuse_concat_3to4_0_split
I0125 16:25:02.383877 22613 net.cpp:164] Top shape: 1 2 192 193 (74112)
I0125 16:25:02.383882 22613 net.cpp:164] Top shape: 1 2 192 193 (74112)
I0125 16:25:02.383888 22613 layer_factory.hpp:76] Creating layer conv4_in
I0125 16:25:02.383911 22613 net.cpp:111] Creating Layer conv4_in
I0125 16:25:02.383918 22613 net.cpp:478] conv4_in <- upscore-dsn4-fuse_concat_3to4_0_split_0
I0125 16:25:02.383926 22613 net.cpp:434] conv4_in -> dsn4_in
I0125 16:25:02.384042 22613 net.cpp:156] Setting up conv4_in
I0125 16:25:02.384052 22613 net.cpp:164] Top shape: 1 1 192 193 (37056)
I0125 16:25:02.384063 22613 layer_factory.hpp:76] Creating layer dsn4_in_conv4_in_0_split
I0125 16:25:02.384073 22613 net.cpp:111] Creating Layer dsn4_in_conv4_in_0_split
I0125 16:25:02.384079 22613 net.cpp:478] dsn4_in_conv4_in_0_split <- dsn4_in
I0125 16:25:02.384088 22613 net.cpp:434] dsn4_in_conv4_in_0_split -> dsn4_in_conv4_in_0_split_0
I0125 16:25:02.384097 22613 net.cpp:434] dsn4_in_conv4_in_0_split -> dsn4_in_conv4_in_0_split_1
I0125 16:25:02.384107 22613 net.cpp:156] Setting up dsn4_in_conv4_in_0_split
I0125 16:25:02.384114 22613 net.cpp:164] Top shape: 1 1 192 193 (37056)
I0125 16:25:02.384120 22613 net.cpp:164] Top shape: 1 1 192 193 (37056)
I0125 16:25:02.384124 22613 layer_factory.hpp:76] Creating layer 
I0125 16:25:02.384133 22613 net.cpp:111] Creating Layer 
I0125 16:25:02.384140 22613 net.cpp:478]  <- dsn4_in_conv4_in_0_split_0
I0125 16:25:02.384146 22613 net.cpp:478]  <- label_data_1_split_3
I0125 16:25:02.384157 22613 net.cpp:434]  -> dsn4_loss
I0125 16:25:02.384246 22613 net.cpp:156] Setting up 
I0125 16:25:02.384256 22613 net.cpp:164] Top shape: (1)
I0125 16:25:02.384261 22613 net.cpp:169]     with loss weight 1
I0125 16:25:02.384271 22613 layer_factory.hpp:76] Creating layer conv4to5
I0125 16:25:02.384284 22613 net.cpp:111] Creating Layer conv4to5
I0125 16:25:02.384290 22613 net.cpp:478] conv4to5 <- upscore-dsn4-fuse_concat_3to4_0_split_1
I0125 16:25:02.384299 22613 net.cpp:434] conv4to5 -> conv4to5
I0125 16:25:02.384409 22613 net.cpp:156] Setting up conv4to5
I0125 16:25:02.384421 22613 net.cpp:164] Top shape: 1 1 192 193 (37056)
I0125 16:25:02.384429 22613 layer_factory.hpp:76] Creating layer score-dsn5
I0125 16:25:02.384440 22613 net.cpp:111] Creating Layer score-dsn5
I0125 16:25:02.384446 22613 net.cpp:478] score-dsn5 <- conv5_3
I0125 16:25:02.384454 22613 net.cpp:434] score-dsn5 -> score-dsn5
I0125 16:25:02.384521 22613 net.cpp:156] Setting up score-dsn5
I0125 16:25:02.384531 22613 net.cpp:164] Top shape: 1 1 17 17 (289)
I0125 16:25:02.384539 22613 layer_factory.hpp:76] Creating layer upsample_16
I0125 16:25:02.384547 22613 net.cpp:111] Creating Layer upsample_16
I0125 16:25:02.384565 22613 net.cpp:478] upsample_16 <- score-dsn5
I0125 16:25:02.384577 22613 net.cpp:434] upsample_16 -> score-dsn5-up
I0125 16:25:02.385541 22613 net.cpp:156] Setting up upsample_16
I0125 16:25:02.385563 22613 net.cpp:164] Top shape: 1 1 288 288 (82944)
I0125 16:25:02.385574 22613 layer_factory.hpp:76] Creating layer crop
I0125 16:25:02.385587 22613 net.cpp:111] Creating Layer crop
I0125 16:25:02.385594 22613 net.cpp:478] crop <- score-dsn5-up
I0125 16:25:02.385602 22613 net.cpp:478] crop <- data_data_0_split_5
I0125 16:25:02.385610 22613 net.cpp:434] crop -> upscore-dsn5
I0125 16:25:02.385695 22613 net.cpp:156] Setting up crop
I0125 16:25:02.385705 22613 net.cpp:164] Top shape: 1 1 192 193 (37056)
I0125 16:25:02.385710 22613 layer_factory.hpp:76] Creating layer concat_4to5
I0125 16:25:02.385720 22613 net.cpp:111] Creating Layer concat_4to5
I0125 16:25:02.385725 22613 net.cpp:478] concat_4to5 <- conv4to5
I0125 16:25:02.385732 22613 net.cpp:478] concat_4to5 <- upscore-dsn5
I0125 16:25:02.385740 22613 net.cpp:434] concat_4to5 -> upscore-dsn5-fuse
I0125 16:25:02.385751 22613 net.cpp:156] Setting up concat_4to5
I0125 16:25:02.385757 22613 net.cpp:164] Top shape: 1 2 192 193 (74112)
I0125 16:25:02.385769 22613 layer_factory.hpp:76] Creating layer conv5_in
I0125 16:25:02.385781 22613 net.cpp:111] Creating Layer conv5_in
I0125 16:25:02.385785 22613 net.cpp:478] conv5_in <- upscore-dsn5-fuse
I0125 16:25:02.385793 22613 net.cpp:434] conv5_in -> dsn5_in
I0125 16:25:02.386713 22613 net.cpp:156] Setting up conv5_in
I0125 16:25:02.386734 22613 net.cpp:164] Top shape: 1 1 192 193 (37056)
I0125 16:25:02.386745 22613 layer_factory.hpp:76] Creating layer dsn5_in_conv5_in_0_split
I0125 16:25:02.386755 22613 net.cpp:111] Creating Layer dsn5_in_conv5_in_0_split
I0125 16:25:02.386761 22613 net.cpp:478] dsn5_in_conv5_in_0_split <- dsn5_in
I0125 16:25:02.386771 22613 net.cpp:434] dsn5_in_conv5_in_0_split -> dsn5_in_conv5_in_0_split_0
I0125 16:25:02.386782 22613 net.cpp:434] dsn5_in_conv5_in_0_split -> dsn5_in_conv5_in_0_split_1
I0125 16:25:02.386793 22613 net.cpp:156] Setting up dsn5_in_conv5_in_0_split
I0125 16:25:02.386801 22613 net.cpp:164] Top shape: 1 1 192 193 (37056)
I0125 16:25:02.386806 22613 net.cpp:164] Top shape: 1 1 192 193 (37056)
I0125 16:25:02.386811 22613 layer_factory.hpp:76] Creating layer 
I0125 16:25:02.386823 22613 net.cpp:111] Creating Layer 
I0125 16:25:02.386829 22613 net.cpp:478]  <- dsn5_in_conv5_in_0_split_0
I0125 16:25:02.386837 22613 net.cpp:478]  <- label_data_1_split_4
I0125 16:25:02.386844 22613 net.cpp:434]  -> dsn5_loss
I0125 16:25:02.386940 22613 net.cpp:156] Setting up 
I0125 16:25:02.386951 22613 net.cpp:164] Top shape: (1)
I0125 16:25:02.386955 22613 net.cpp:169]     with loss weight 1
I0125 16:25:02.386966 22613 layer_factory.hpp:76] Creating layer concat
I0125 16:25:02.386976 22613 net.cpp:111] Creating Layer concat
I0125 16:25:02.386982 22613 net.cpp:478] concat <- upscore-dsn1_crop_0_split_2
I0125 16:25:02.386989 22613 net.cpp:478] concat <- dsn2_in_conv2_in_0_split_1
I0125 16:25:02.386996 22613 net.cpp:478] concat <- dsn3_in_conv3_in_0_split_1
I0125 16:25:02.387002 22613 net.cpp:478] concat <- dsn4_in_conv4_in_0_split_1
I0125 16:25:02.387007 22613 net.cpp:478] concat <- dsn5_in_conv5_in_0_split_1
I0125 16:25:02.387017 22613 net.cpp:434] concat -> concat-upscore
I0125 16:25:02.387027 22613 net.cpp:156] Setting up concat
I0125 16:25:02.387034 22613 net.cpp:164] Top shape: 1 5 192 193 (185280)
I0125 16:25:02.387039 22613 layer_factory.hpp:76] Creating layer new-score-weighting
I0125 16:25:02.387053 22613 net.cpp:111] Creating Layer new-score-weighting
I0125 16:25:02.387058 22613 net.cpp:478] new-score-weighting <- concat-upscore
I0125 16:25:02.387068 22613 net.cpp:434] new-score-weighting -> upscore-fuse
I0125 16:25:02.387177 22613 net.cpp:156] Setting up new-score-weighting
I0125 16:25:02.387189 22613 net.cpp:164] Top shape: 1 1 192 193 (37056)
I0125 16:25:02.387198 22613 layer_factory.hpp:76] Creating layer 
I0125 16:25:02.387210 22613 net.cpp:111] Creating Layer 
I0125 16:25:02.387217 22613 net.cpp:478]  <- upscore-fuse
I0125 16:25:02.387223 22613 net.cpp:478]  <- label_data_1_split_5
I0125 16:25:02.387230 22613 net.cpp:434]  -> fuse_loss
I0125 16:25:02.387318 22613 net.cpp:156] Setting up 
I0125 16:25:02.387328 22613 net.cpp:164] Top shape: (1)
…
I0125 16:25:02.388895 22613 net.cpp:340] The NetState phase (1) differed from the phase (0) specified by a rule in layer data
I0125 16:25:02.389437 22613 net.cpp:50] Initializing net from parameters: 
name: "HED"
state {
  phase: TEST
}
layer {
  name: "data"
  type: "ImageLabelmapData"
  top: "data"
  top: "label"
  include {
    phase: TEST
  }
  transform_param {
    mirror: false
    mean_value: 104.00699
    mean_value: 116.66877
    mean_value: 122.67892
  }
  image_data_param {
    source: "../../data/HED-BSDS/train_pair.lst"
    batch_size: 1
    shuffle: true
    new_height: 0
    new_width: 0
    root_folder: "../../data/HED-BSDS/"
  }
}
layer {
  name: "conv1_1"
  type: "Convolution"
  bottom: "data"
  top: "conv1_1"
  param {
    lr_mult: 1
    decay_mult: 1
  }
  param {
    lr_mult: 2
    decay_mult: 0
  }
  convolution_param {
    num_output: 64
    pad: 35
    kernel_size: 3
    engine: CAFFE
  }
}
layer {
  name: "relu1_1"
  type: "ReLU"
  bottom: "conv1_1"
  top: "conv1_1"
}
layer {
  name: "conv1_2"
  type: "Convolution"
  bottom: "conv1_1"
  top: "conv1_2"
  param {
    lr_mult: 1
    decay_mult: 1
  }
  param {
    lr_mult: 2
    decay_mult: 0
  }
  convolution_param {
    num_output: 64
    pad: 1
    kernel_size: 3
    engine: CAFFE
  }
}
layer {
  name: "relu1_2"
  type: "ReLU"
  bottom: "conv1_2"
  top: "conv1_2"
}
layer {
  name: "pool1"
  type: "Pooling"
  bottom: "conv1_2"
  top: "pool1"
  pooling_param {
    pool: MAX
    kernel_size: 2
    stride: 2
  }
}
layer {
  name: "conv2_1"
  type: "Convolution"
  bottom: "pool1"
  top: "conv2_1"
  param {
    lr_mult: 1
    decay_mult: 1
  }
  param {
    lr_mult: 2
    decay_mult: 0
  }
  convolution_param {
    num_output: 128
    pad: 1
    kernel_size: 3
    engine: CAFFE
  }
}
layer {
  name: "relu2_1"
  type: "ReLU"
  bottom: "conv2_1"
  top: "conv2_1"
}
layer {
  name: "conv2_2"
  type: "Convolution"
  bottom: "conv2_1"
  top: "conv2_2"
  param {
    lr_mult: 1
    decay_mult: 1
  }
  param {
    lr_mult: 2
    decay_mult: 0
  }
  convolution_param {
    num_output: 128
    pad: 1
    kernel_size: 3
    engine: CAFFE
  }
}
layer {
  name: "relu2_2"
  type: "ReLU"
  bottom: "conv2_2"
  top: "conv2_2"
}
layer {
  name: "pool2"
  type: "Pooling"
  bottom: "conv2_2"
  top: "pool2"
  pooling_param {
    pool: MAX
    kernel_size: 2
    stride: 2
  }
}
layer {
  name: "conv3_1"
  type: "Convolution"
  bottom: "pool2"
  top: "conv3_1"
  param {
    lr_mult: 1
    decay_mult: 1
  }
  param {
    lr_mult: 2
    decay_mult: 0
  }
  convolution_param {
    num_output: 256
    pad: 1
    kernel_size: 3
    engine: CAFFE
  }
}
layer {
  name: "relu3_1"
  type: "ReLU"
  bottom: "conv3_1"
  top: "conv3_1"
}
layer {
  name: "conv3_2"
  type: "Convolution"
  bottom: "conv3_1"
  top: "conv3_2"
  param {
    lr_mult: 1
    decay_mult: 1
  }
  param {
    lr_mult: 2
    decay_mult: 0
  }
  convolution_param {
    num_output: 256
    pad: 1
    kernel_size: 3
    engine: CAFFE
  }
}
layer {
  name: "relu3_2"
  type: "ReLU"
  bottom: "conv3_2"
  top: "conv3_2"
}
layer {
  name: "conv3_3"
  type: "Convolution"
  bottom: "conv3_2"
  top: "conv3_3"
  param {
    lr_mult: 1
    decay_mult: 1
  }
  param {
    lr_mult: 2
    decay_mult: 0
  }
  convolution_param {
    num_output: 256
    pad: 1
    kernel_size: 3
    engine: CAFFE
  }
}
layer {
  name: "relu3_3"
  type: "ReLU"
  bottom: "conv3_3"
  top: "conv3_3"
}
layer {
  name: "pool3"
  type: "Pooling"
  bottom: "conv3_3"
  top: "pool3"
  pooling_param {
    pool: MAX
    kernel_size: 2
    stride: 2
  }
}
layer {
  name: "conv4_1"
  type: "Convolution"
  bottom: "pool3"
  top: "conv4_1"
  param {
    lr_mult: 1
    decay_mult: 1
  }
  param {
    lr_mult: 2
    decay_mult: 0
  }
  convolution_param {
    num_output: 512
    pad: 1
    kernel_size: 3
    engine: CAFFE
  }
}
layer {
  name: "relu4_1"
  type: "ReLU"
  bottom: "conv4_1"
  top: "conv4_1"
}
layer {
  name: "conv4_2"
  type: "Convolution"
  bottom: "conv4_1"
  top: "conv4_2"
  param {
    lr_mult: 1
    decay_mult: 1
  }
  param {
    lr_mult: 2
    decay_mult: 0
  }
  convolution_param {
    num_output: 512
    pad: 1
    kernel_size: 3
    engine: CAFFE
  }
}
layer {
  name: "relu4_2"
  type: "ReLU"
  bottom: "conv4_2"
  top: "conv4_2"
}
layer {
  name: "conv4_3"
  type: "Convolution"
  bottom: "conv4_2"
  top: "conv4_3"
  param {
    lr_mult: 1
    decay_mult: 1
  }
  param {
    lr_mult: 2
    decay_mult: 0
  }
  convolution_param {
    num_output: 512
    pad: 1
    kernel_size: 3
    engine: CAFFE
  }
}
layer {
  name: "relu4_3"
  type: "ReLU"
  bottom: "conv4_3"
  top: "conv4_3"
}
layer {
  name: "pool4"
  type: "Pooling"
  bottom: "conv4_3"
  top: "pool4"
  pooling_param {
    pool: MAX
    kernel_size: 2
    stride: 2
  }
}
layer {
  name: "conv5_1"
  type: "Convolution"
  bottom: "pool4"
  top: "conv5_1"
  param {
    lr_mult: 100
    decay_mult: 1
  }
  param {
    lr_mult: 200
    decay_mult: 0
  }
  convolution_param {
    num_output: 512
    pad: 1
    kernel_size: 3
    engine: CAFFE
  }
}
layer {
  name: "relu5_1"
  type: "ReLU"
  bottom: "conv5_1"
  top: "conv5_1"
}
layer {
  name: "conv5_2"
  type: "Convolution"
  bottom: "conv5_1"
  top: "conv5_2"
  param {
    lr_mult: 100
    decay_mult: 1
  }
  param {
    lr_mult: 200
    decay_mult: 0
  }
  convolution_param {
    num_output: 512
    pad: 1
    kernel_size: 3
    engine: CAFFE
  }
}
layer {
  name: "relu5_2"
  type: "ReLU"
  bottom: "conv5_2"
  top: "conv5_2"
}
layer {
  name: "conv5_3"
  type: "Convolution"
  bottom: "conv5_2"
  top: "conv5_3"
  param {
    lr_mult: 100
    decay_mult: 1
  }
  param {
    lr_mult: 200
    decay_mult: 0
  }
  convolution_param {
    num_output: 512
    pad: 1
    kernel_size: 3
    engine: CAFFE
  }
}
layer {
  name: "relu5_3"
  type: "ReLU"
  bottom: "conv5_3"
  top: "conv5_3"
}
layer {
  name: "score-dsn1"
  type: "Convolution"
  bottom: "conv1_2"
  top: "score-dsn1-up"
  param {
    lr_mult: 0.01
    decay_mult: 1
  }
  param {
    lr_mult: 0.02
    decay_mult: 0
  }
  convolution_param {
    num_output: 1
    kernel_size: 1
    engine: CAFFE
  }
}
layer {
  name: "crop"
  type: "Crop"
  bottom: "score-dsn1-up"
  bottom: "data"
  top: "upscore-dsn1"
}
layer {
  type: "SigmoidCrossEntropyLoss"
  bottom: "upscore-dsn1"
  bottom: "label"
  top: "dsn1_loss"
  loss_weight: 1
}
layer {
  name: "score-dsn2"
  type: "Convolution"
  bottom: "conv2_2"
  top: "score-dsn2"
  param {
    lr_mult: 0.01
    decay_mult: 1
  }
  param {
    lr_mult: 0.02
    decay_mult: 0
  }
  convolution_param {
    num_output: 1
    kernel_size: 1
    engine: CAFFE
  }
}
layer {
  name: "upsample_2"
  type: "Deconvolution"
  bottom: "score-dsn2"
  top: "score-dsn2-up"
  param {
    lr_mult: 0
    decay_mult: 1
  }
  param {
    lr_mult: 0
    decay_mult: 0
  }
  convolution_param {
    num_output: 1
    kernel_size: 4
    stride: 2
  }
}
layer {
  name: "crop"
  type: "Crop"
  bottom: "score-dsn2-up"
  bottom: "data"
  top: "upscore-dsn2"
}
layer {
  name: "concat_1to2"
  type: "Concat"
  bottom: "upscore-dsn1"
  bottom: "upscore-dsn2"
  top: "upscore-dsn2-fuse"
  concat_param {
    concat_dim: 1
  }
}
layer {
  name: "conv2_in"
  type: "Convolution"
  bottom: "upscore-dsn2-fuse"
  top: "dsn2_in"
  param {
    lr_mult: 0.1
    decay_mult: 1
  }
  param {
    lr_mult: 0.2
    decay_mult: 0
  }
  convolution_param {
    num_output: 1
    kernel_size: 1
    weight_filler {
      type: "constant"
      value: 0.01
    }
  }
}
layer {
  type: "SigmoidCrossEntropyLoss"
  bottom: "dsn2_in"
  bottom: "label"
  top: "dsn2_loss"
  loss_weight: 1
}
layer {
  name: "conv2to3"
  type: "Convolution"
  bottom: "upscore-dsn2-fuse"
  top: "conv2to3"
  param {
    lr_mult: 0.001
    decay_mult: 1
  }
  param {
    lr_mult: 0.002
    decay_mult: 0
  }
  convolution_param {
    num_output: 1
    pad: 1
    kernel_size: 3
    weight_filler {
      type: "gaussian"
      std: 0.001
    }
  }
}
layer {
  name: "score-dsn3"
  type: "Convolution"
  bottom: "conv3_3"
  top: "score-dsn3"
  param {
    lr_mult: 0.01
    decay_mult: 1
  }
  param {
    lr_mult: 0.02
    decay_mult: 0
  }
  convolution_param {
    num_output: 1
    kernel_size: 1
    engine: CAFFE
  }
}
layer {
  name: "upsample_4"
  type: "Deconvolution"
  bottom: "score-dsn3"
  top: "score-dsn3-up"
  param {
    lr_mult: 0
    decay_mult: 1
  }
  param {
    lr_mult: 0
    decay_mult: 0
  }
  convolution_param {
    num_output: 1
    kernel_size: 8
    stride: 4
  }
}
layer {
  name: "crop"
  type: "Crop"
  bottom: "score-dsn3-up"
  bottom: "data"
  top: "upscore-dsn3"
}
layer {
  name: "concat_2to3"
  type: "Concat"
  bottom: "conv2to3"
  bottom: "upscore-dsn3"
  top: "upscore-dsn3-fuse"
  concat_param {
    concat_dim: 1
  }
}
layer {
  name: "conv3_in"
  type: "Convolution"
  bottom: "upscore-dsn3-fuse"
  top: "dsn3_in"
  param {
    lr_mult: 0.1
    decay_mult: 1
  }
  param {
    lr_mult: 0.2
    decay_mult: 0
  }
  convolution_param {
    num_output: 1
    kernel_size: 1
    weight_filler {
      type: "constant"
      value: 0.01
    }
  }
}
layer {
  type: "SigmoidCrossEntropyLoss"
  bottom: "dsn3_in"
  bottom: "label"
  top: "dsn3_loss"
  loss_weight: 1
}
layer {
  name: "conv3to4"
  type: "Convolution"
  bottom: "upscore-dsn3-fuse"
  top: "conv3to4"
  param {
    lr_mult: 0.001
    decay_mult: 1
  }
  param {
    lr_mult: 0.002
    decay_mult: 0
  }
  convolution_param {
    num_output: 1
    pad: 1
    kernel_size: 3
    weight_filler {
      type: "gaussian"
      std: 0.001
    }
  }
}
layer {
  name: "score-dsn4"
  type: "Convolution"
  bottom: "conv4_3"
  top: "score-dsn4"
  param {
    lr_mult: 0.01
    decay_mult: 1
  }
  param {
    lr_mult: 0.02
    decay_mult: 0
  }
  convolution_param {
    num_output: 1
    kernel_size: 1
    engine: CAFFE
  }
}
layer {
  name: "upsample_8"
  type: "Deconvolution"
  bottom: "score-dsn4"
  top: "score-dsn4-up"
  param {
    lr_mult: 0
    decay_mult: 1
  }
  param {
    lr_mult: 0
    decay_mult: 0
  }
  convolution_param {
    num_output: 1
    kernel_size: 16
    stride: 8
  }
}
layer {
  name: "crop"
  type: "Crop"
  bottom: "score-dsn4-up"
  bottom: "data"
  top: "upscore-dsn4"
}
layer {
  name: "concat_3to4"
  type: "Concat"
  bottom: "conv3to4"
  bottom: "upscore-dsn4"
  top: "upscore-dsn4-fuse"
  concat_param {
    concat_dim: 1
  }
}
layer {
  name: "conv4_in"
  type: "Convolution"
  bottom: "upscore-dsn4-fuse"
  top: "dsn4_in"
  param {
    lr_mult: 0.1
    decay_mult: 1
  }
  param {
    lr_mult: 0.2
    decay_mult: 0
  }
  convolution_param {
    num_output: 1
    kernel_size: 1
    weight_filler {
      type: "constant"
      value: 0.01
    }
  }
}
layer {
  type: "SigmoidCrossEntropyLoss"
  bottom: "dsn4_in"
  bottom: "label"
  top: "dsn4_loss"
  loss_weight: 1
}
layer {
  name: "conv4to5"
  type: "Convolution"
  bottom: "upscore-dsn4-fuse"
  top: "conv4to5"
  param {
    lr_mult: 0.001
    decay_mult: 1
  }
  param {
    lr_mult: 0.002
    decay_mult: 0
  }
  convolution_param {
    num_output: 1
    pad: 1
    kernel_size: 3
    weight_filler {
      type: "gaussian"
      std: 0.001
    }
  }
}
layer {
  name: "score-dsn5"
  type: "Convolution"
  bottom: "conv5_3"
  top: "score-dsn5"
  param {
    lr_mult: 0.01
    decay_mult: 1
  }
  param {
    lr_mult: 0.02
    decay_mult: 0
  }
  convolution_param {
    num_output: 1
    kernel_size: 1
    engine: CAFFE
  }
}
layer {
  name: "upsample_16"
  type: "Deconvolution"
  bottom: "score-dsn5"
  top: "score-dsn5-up"
  param {
    lr_mult: 0
    decay_mult: 1
  }
  param {
    lr_mult: 0
    decay_mult: 0
  }
  convolution_param {
    num_output: 1
    kernel_size: 32
    stride: 16
  }
}
layer {
  name: "crop"
  type: "Crop"
  bottom: "score-dsn5-up"
  bottom: "data"
  top: "upscore-dsn5"
}
layer {
  name: "concat_4to5"
  type: "Concat"
  bottom: "conv4to5"
  bottom: "upscore-dsn5"
  top: "upscore-dsn5-fuse"
  concat_param {
    concat_dim: 1
  }
}
layer {
  name: "conv5_in"
  type: "Convolution"
  bottom: "upscore-dsn5-fuse"
  top: "dsn5_in"
  param {
    lr_mult: 0.1
    decay_mult: 1
  }
  param {
    lr_mult: 0.2
    decay_mult: 0
  }
  convolution_param {
    num_output: 1
    kernel_size: 1
    weight_filler {
      type: "constant"
      value: 0.01
    }
  }
}
layer {
  type: "SigmoidCrossEntropyLoss"
  bottom: "dsn5_in"
  bottom: "label"
  top: "dsn5_loss"
  loss_weight: 1
}
layer {
  name: "concat"
  type: "Concat"
  bottom: "upscore-dsn1"
  bottom: "dsn2_in"
  bottom: "dsn3_in"
  bottom: "dsn4_in"
  bottom: "dsn5_in"
  top: "concat-upscore"
  concat_param {
    concat_dim: 1
  }
}
layer {
  name: "new-score-weighting"
  type: "Convolution"
  bottom: "concat-upscore"
  top: "upscore-fuse"
  param {
    lr_mult: 0.001
    decay_mult: 1
  }
  param {
    lr_mult: 0.002
    decay_mult: 0
  }
  convolution_param {
    num_output: 1
    kernel_size: 1
    weight_filler {
      type: "constant"
      value: 0.2
    }
    engine: CAFFE
  }
}
layer {
  type: "SigmoidCrossEntropyLoss"
  bottom: "upscore-fuse"
  bottom: "label"
  top: "fuse_loss"
  loss_weight: 1
}
I0125 16:25:02.389874 22613 layer_factory.hpp:76] Creating layer data
I0125 16:25:02.389900 22613 net.cpp:111] Creating Layer data
I0125 16:25:02.389909 22613 net.cpp:434] data -> data
I0125 16:25:02.389922 22613 net.cpp:434] data -> label
I0125 16:25:02.389936 22613 image_labelmap_data_layer.cpp:40] Opening file ../../data/HED-BSDS/train_pair.lst
I0125 16:25:02.426753 22613 image_labelmap_data_layer.cpp:50] Shuffling data
I0125 16:25:02.437696 22613 image_labelmap_data_layer.cpp:55] A total of 28800 images.
I0125 16:25:02.440876 22613 image_labelmap_data_layer.cpp:109] output data size: 1,3,314,576
I0125 16:25:02.440891 22613 image_labelmap_data_layer.cpp:112] output label size: 1,1,314,576
I0125 16:25:02.450945 22613 net.cpp:156] Setting up data
I0125 16:25:02.450979 22613 net.cpp:164] Top shape: 1 3 314 576 (542592)
I0125 16:25:02.450987 22613 net.cpp:164] Top shape: 1 1 314 576 (180864)
I0125 16:25:02.451095 22613 layer_factory.hpp:76] Creating layer data_data_0_split
I0125 16:25:02.451171 22613 net.cpp:111] Creating Layer data_data_0_split
I0125 16:25:02.451195 22613 net.cpp:478] data_data_0_split <- data
I0125 16:25:02.451210 22613 net.cpp:434] data_data_0_split -> data_data_0_split_0
I0125 16:25:02.451238 22613 net.cpp:434] data_data_0_split -> data_data_0_split_1
I0125 16:25:02.451252 22613 net.cpp:434] data_data_0_split -> data_data_0_split_2
I0125 16:25:02.451277 22613 net.cpp:434] data_data_0_split -> data_data_0_split_3
I0125 16:25:02.451287 22613 net.cpp:434] data_data_0_split -> data_data_0_split_4
I0125 16:25:02.451299 22613 net.cpp:434] data_data_0_split -> data_data_0_split_5
I0125 16:25:02.451313 22613 net.cpp:156] Setting up data_data_0_split
I0125 16:25:02.451323 22613 net.cpp:164] Top shape: 1 3 314 576 (542592)
I0125 16:25:02.451328 22613 net.cpp:164] Top shape: 1 3 314 576 (542592)
I0125 16:25:02.451331 22613 net.cpp:164] Top shape: 1 3 314 576 (542592)
I0125 16:25:02.451336 22613 net.cpp:164] Top shape: 1 3 314 576 (542592)
I0125 16:25:02.451340 22613 net.cpp:164] Top shape: 1 3 314 576 (542592)
I0125 16:25:02.451344 22613 net.cpp:164] Top shape: 1 3 314 576 (542592)
I0125 16:25:02.451349 22613 layer_factory.hpp:76] Creating layer label_data_1_split
I0125 16:25:02.451359 22613 net.cpp:111] Creating Layer label_data_1_split
I0125 16:25:02.451362 22613 net.cpp:478] label_data_1_split <- label
I0125 16:25:02.451376 22613 net.cpp:434] label_data_1_split -> label_data_1_split_0
I0125 16:25:02.451388 22613 net.cpp:434] label_data_1_split -> label_data_1_split_1
I0125 16:25:02.451396 22613 net.cpp:434] label_data_1_split -> label_data_1_split_2
I0125 16:25:02.451406 22613 net.cpp:434] label_data_1_split -> label_data_1_split_3
I0125 16:25:02.451414 22613 net.cpp:434] label_data_1_split -> label_data_1_split_4
I0125 16:25:02.451423 22613 net.cpp:434] label_data_1_split -> label_data_1_split_5
I0125 16:25:02.451436 22613 net.cpp:156] Setting up label_data_1_split
I0125 16:25:02.451442 22613 net.cpp:164] Top shape: 1 1 314 576 (180864)
I0125 16:25:02.451447 22613 net.cpp:164] Top shape: 1 1 314 576 (180864)
I0125 16:25:02.451452 22613 net.cpp:164] Top shape: 1 1 314 576 (180864)
I0125 16:25:02.451457 22613 net.cpp:164] Top shape: 1 1 314 576 (180864)
I0125 16:25:02.451462 22613 net.cpp:164] Top shape: 1 1 314 576 (180864)
I0125 16:25:02.451465 22613 net.cpp:164] Top shape: 1 1 314 576 (180864)
I0125 16:25:02.451472 22613 layer_factory.hpp:76] Creating layer conv1_1
I0125 16:25:02.451483 22613 net.cpp:111] Creating Layer conv1_1
I0125 16:25:02.451489 22613 net.cpp:478] conv1_1 <- data_data_0_split_0
I0125 16:25:02.451498 22613 net.cpp:434] conv1_1 -> conv1_1
I0125 16:25:02.452801 22613 net.cpp:156] Setting up conv1_1
I0125 16:25:02.452823 22613 net.cpp:164] Top shape: 1 64 382 644 (15744512)
I0125 16:25:02.452838 22613 layer_factory.hpp:76] Creating layer relu1_1
I0125 16:25:02.452857 22613 net.cpp:111] Creating Layer relu1_1
I0125 16:25:02.452862 22613 net.cpp:478] relu1_1 <- conv1_1
I0125 16:25:02.452869 22613 net.cpp:420] relu1_1 -> conv1_1 (in-place)
I0125 16:25:02.452879 22613 net.cpp:156] Setting up relu1_1
I0125 16:25:02.452885 22613 net.cpp:164] Top shape: 1 64 382 644 (15744512)
I0125 16:25:02.452888 22613 layer_factory.hpp:76] Creating layer conv1_2
I0125 16:25:02.452896 22613 net.cpp:111] Creating Layer conv1_2
I0125 16:25:02.452900 22613 net.cpp:478] conv1_2 <- conv1_1
I0125 16:25:02.452919 22613 net.cpp:434] conv1_2 -> conv1_2
I0125 16:25:02.454649 22613 net.cpp:156] Setting up conv1_2
I0125 16:25:02.454679 22613 net.cpp:164] Top shape: 1 64 382 644 (15744512)
I0125 16:25:02.454700 22613 layer_factory.hpp:76] Creating layer relu1_2
I0125 16:25:02.454715 22613 net.cpp:111] Creating Layer relu1_2
I0125 16:25:02.454722 22613 net.cpp:478] relu1_2 <- conv1_2
I0125 16:25:02.454753 22613 net.cpp:420] relu1_2 -> conv1_2 (in-place)
I0125 16:25:02.454769 22613 net.cpp:156] Setting up relu1_2
I0125 16:25:02.454779 22613 net.cpp:164] Top shape: 1 64 382 644 (15744512)
I0125 16:25:02.454788 22613 layer_factory.hpp:76] Creating layer conv1_2_relu1_2_0_split
I0125 16:25:02.454800 22613 net.cpp:111] Creating Layer conv1_2_relu1_2_0_split
I0125 16:25:02.454807 22613 net.cpp:478] conv1_2_relu1_2_0_split <- conv1_2
I0125 16:25:02.454828 22613 net.cpp:434] conv1_2_relu1_2_0_split -> conv1_2_relu1_2_0_split_0
I0125 16:25:02.454862 22613 net.cpp:434] conv1_2_relu1_2_0_split -> conv1_2_relu1_2_0_split_1
I0125 16:25:02.454879 22613 net.cpp:156] Setting up conv1_2_relu1_2_0_split
I0125 16:25:02.454890 22613 net.cpp:164] Top shape: 1 64 382 644 (15744512)
I0125 16:25:02.454900 22613 net.cpp:164] Top shape: 1 64 382 644 (15744512)
I0125 16:25:02.454906 22613 layer_factory.hpp:76] Creating layer pool1
I0125 16:25:02.454923 22613 net.cpp:111] Creating Layer pool1
I0125 16:25:02.454931 22613 net.cpp:478] pool1 <- conv1_2_relu1_2_0_split_0
I0125 16:25:02.454941 22613 net.cpp:434] pool1 -> pool1
I0125 16:25:02.454960 22613 net.cpp:156] Setting up pool1
I0125 16:25:02.454970 22613 net.cpp:164] Top shape: 1 64 191 322 (3936128)
I0125 16:25:02.454977 22613 layer_factory.hpp:76] Creating layer conv2_1
I0125 16:25:02.454991 22613 net.cpp:111] Creating Layer conv2_1
I0125 16:25:02.454998 22613 net.cpp:478] conv2_1 <- pool1
I0125 16:25:02.455009 22613 net.cpp:434] conv2_1 -> conv2_1
I0125 16:25:02.455395 22613 net.cpp:156] Setting up conv2_1
I0125 16:25:02.455413 22613 net.cpp:164] Top shape: 1 128 191 322 (7872256)
I0125 16:25:02.455435 22613 layer_factory.hpp:76] Creating layer relu2_1
I0125 16:25:02.455446 22613 net.cpp:111] Creating Layer relu2_1
I0125 16:25:02.455454 22613 net.cpp:478] relu2_1 <- conv2_1
I0125 16:25:02.455466 22613 net.cpp:420] relu2_1 -> conv2_1 (in-place)
I0125 16:25:02.455479 22613 net.cpp:156] Setting up relu2_1
I0125 16:25:02.455488 22613 net.cpp:164] Top shape: 1 128 191 322 (7872256)
I0125 16:25:02.455495 22613 layer_factory.hpp:76] Creating layer conv2_2
I0125 16:25:02.455508 22613 net.cpp:111] Creating Layer conv2_2
I0125 16:25:02.455515 22613 net.cpp:478] conv2_2 <- conv2_1
I0125 16:25:02.455528 22613 net.cpp:434] conv2_2 -> conv2_2
I0125 16:25:02.457053 22613 net.cpp:156] Setting up conv2_2
I0125 16:25:02.457085 22613 net.cpp:164] Top shape: 1 128 191 322 (7872256)
I0125 16:25:02.457101 22613 layer_factory.hpp:76] Creating layer relu2_2
I0125 16:25:02.457115 22613 net.cpp:111] Creating Layer relu2_2
I0125 16:25:02.457123 22613 net.cpp:478] relu2_2 <- conv2_2
I0125 16:25:02.457135 22613 net.cpp:420] relu2_2 -> conv2_2 (in-place)
I0125 16:25:02.457150 22613 net.cpp:156] Setting up relu2_2
I0125 16:25:02.457160 22613 net.cpp:164] Top shape: 1 128 191 322 (7872256)
I0125 16:25:02.457167 22613 layer_factory.hpp:76] Creating layer conv2_2_relu2_2_0_split
I0125 16:25:02.457178 22613 net.cpp:111] Creating Layer conv2_2_relu2_2_0_split
I0125 16:25:02.457185 22613 net.cpp:478] conv2_2_relu2_2_0_split <- conv2_2
I0125 16:25:02.457197 22613 net.cpp:434] conv2_2_relu2_2_0_split -> conv2_2_relu2_2_0_split_0
I0125 16:25:02.457213 22613 net.cpp:434] conv2_2_relu2_2_0_split -> conv2_2_relu2_2_0_split_1
I0125 16:25:02.457229 22613 net.cpp:156] Setting up conv2_2_relu2_2_0_split
I0125 16:25:02.457239 22613 net.cpp:164] Top shape: 1 128 191 322 (7872256)
I0125 16:25:02.457247 22613 net.cpp:164] Top shape: 1 128 191 322 (7872256)
I0125 16:25:02.457254 22613 layer_factory.hpp:76] Creating layer pool2
I0125 16:25:02.457265 22613 net.cpp:111] Creating Layer pool2
I0125 16:25:02.457273 22613 net.cpp:478] pool2 <- conv2_2_relu2_2_0_split_0
I0125 16:25:02.457285 22613 net.cpp:434] pool2 -> pool2
I0125 16:25:02.457301 22613 net.cpp:156] Setting up pool2
I0125 16:25:02.457311 22613 net.cpp:164] Top shape: 1 128 96 161 (1978368)
I0125 16:25:02.457319 22613 layer_factory.hpp:76] Creating layer conv3_1
I0125 16:25:02.457330 22613 net.cpp:111] Creating Layer conv3_1
I0125 16:25:02.457337 22613 net.cpp:478] conv3_1 <- pool2
I0125 16:25:02.457350 22613 net.cpp:434] conv3_1 -> conv3_1
I0125 16:25:02.459058 22613 net.cpp:156] Setting up conv3_1
I0125 16:25:02.459086 22613 net.cpp:164] Top shape: 1 256 96 161 (3956736)
I0125 16:25:02.459111 22613 layer_factory.hpp:76] Creating layer relu3_1
I0125 16:25:02.459131 22613 net.cpp:111] Creating Layer relu3_1
I0125 16:25:02.459139 22613 net.cpp:478] relu3_1 <- conv3_1
I0125 16:25:02.459151 22613 net.cpp:420] relu3_1 -> conv3_1 (in-place)
I0125 16:25:02.459166 22613 net.cpp:156] Setting up relu3_1
I0125 16:25:02.459185 22613 net.cpp:164] Top shape: 1 256 96 161 (3956736)
I0125 16:25:02.459193 22613 layer_factory.hpp:76] Creating layer conv3_2
I0125 16:25:02.459206 22613 net.cpp:111] Creating Layer conv3_2
I0125 16:25:02.459213 22613 net.cpp:478] conv3_2 <- conv3_1
I0125 16:25:02.459225 22613 net.cpp:434] conv3_2 -> conv3_2
I0125 16:25:02.462098 22613 net.cpp:156] Setting up conv3_2
I0125 16:25:02.462131 22613 net.cpp:164] Top shape: 1 256 96 161 (3956736)
I0125 16:25:02.462148 22613 layer_factory.hpp:76] Creating layer relu3_2
I0125 16:25:02.462162 22613 net.cpp:111] Creating Layer relu3_2
I0125 16:25:02.462170 22613 net.cpp:478] relu3_2 <- conv3_2
I0125 16:25:02.462185 22613 net.cpp:420] relu3_2 -> conv3_2 (in-place)
I0125 16:25:02.462200 22613 net.cpp:156] Setting up relu3_2
I0125 16:25:02.462210 22613 net.cpp:164] Top shape: 1 256 96 161 (3956736)
I0125 16:25:02.462218 22613 layer_factory.hpp:76] Creating layer conv3_3
I0125 16:25:02.462230 22613 net.cpp:111] Creating Layer conv3_3
I0125 16:25:02.462237 22613 net.cpp:478] conv3_3 <- conv3_2
I0125 16:25:02.462249 22613 net.cpp:434] conv3_3 -> conv3_3
I0125 16:25:02.465116 22613 net.cpp:156] Setting up conv3_3
I0125 16:25:02.465147 22613 net.cpp:164] Top shape: 1 256 96 161 (3956736)
I0125 16:25:02.465167 22613 layer_factory.hpp:76] Creating layer relu3_3
I0125 16:25:02.465179 22613 net.cpp:111] Creating Layer relu3_3
I0125 16:25:02.465188 22613 net.cpp:478] relu3_3 <- conv3_3
I0125 16:25:02.465201 22613 net.cpp:420] relu3_3 -> conv3_3 (in-place)
I0125 16:25:02.465215 22613 net.cpp:156] Setting up relu3_3
I0125 16:25:02.465224 22613 net.cpp:164] Top shape: 1 256 96 161 (3956736)
I0125 16:25:02.465231 22613 layer_factory.hpp:76] Creating layer conv3_3_relu3_3_0_split
I0125 16:25:02.465241 22613 net.cpp:111] Creating Layer conv3_3_relu3_3_0_split
I0125 16:25:02.465248 22613 net.cpp:478] conv3_3_relu3_3_0_split <- conv3_3
I0125 16:25:02.465260 22613 net.cpp:434] conv3_3_relu3_3_0_split -> conv3_3_relu3_3_0_split_0
I0125 16:25:02.465275 22613 net.cpp:434] conv3_3_relu3_3_0_split -> conv3_3_relu3_3_0_split_1
I0125 16:25:02.465289 22613 net.cpp:156] Setting up conv3_3_relu3_3_0_split
I0125 16:25:02.465298 22613 net.cpp:164] Top shape: 1 256 96 161 (3956736)
I0125 16:25:02.465306 22613 net.cpp:164] Top shape: 1 256 96 161 (3956736)
I0125 16:25:02.465312 22613 layer_factory.hpp:76] Creating layer pool3
I0125 16:25:02.465323 22613 net.cpp:111] Creating Layer pool3
I0125 16:25:02.465330 22613 net.cpp:478] pool3 <- conv3_3_relu3_3_0_split_0
I0125 16:25:02.465342 22613 net.cpp:434] pool3 -> pool3
I0125 16:25:02.465358 22613 net.cpp:156] Setting up pool3
I0125 16:25:02.465368 22613 net.cpp:164] Top shape: 1 256 48 81 (995328)
I0125 16:25:02.465374 22613 layer_factory.hpp:76] Creating layer conv4_1
I0125 16:25:02.465385 22613 net.cpp:111] Creating Layer conv4_1
I0125 16:25:02.465392 22613 net.cpp:478] conv4_1 <- pool3
I0125 16:25:02.465404 22613 net.cpp:434] conv4_1 -> conv4_1
I0125 16:25:02.470358 22613 net.cpp:156] Setting up conv4_1
I0125 16:25:02.470387 22613 net.cpp:164] Top shape: 1 512 48 81 (1990656)
I0125 16:25:02.470402 22613 layer_factory.hpp:76] Creating layer relu4_1
I0125 16:25:02.470418 22613 net.cpp:111] Creating Layer relu4_1
I0125 16:25:02.470427 22613 net.cpp:478] relu4_1 <- conv4_1
I0125 16:25:02.470439 22613 net.cpp:420] relu4_1 -> conv4_1 (in-place)
I0125 16:25:02.470453 22613 net.cpp:156] Setting up relu4_1
I0125 16:25:02.470461 22613 net.cpp:164] Top shape: 1 512 48 81 (1990656)
I0125 16:25:02.470468 22613 layer_factory.hpp:76] Creating layer conv4_2
I0125 16:25:02.470479 22613 net.cpp:111] Creating Layer conv4_2
I0125 16:25:02.470486 22613 net.cpp:478] conv4_2 <- conv4_1
I0125 16:25:02.470500 22613 net.cpp:434] conv4_2 -> conv4_2
I0125 16:25:02.479773 22613 net.cpp:156] Setting up conv4_2
I0125 16:25:02.479805 22613 net.cpp:164] Top shape: 1 512 48 81 (1990656)
I0125 16:25:02.479831 22613 layer_factory.hpp:76] Creating layer relu4_2
I0125 16:25:02.479846 22613 net.cpp:111] Creating Layer relu4_2
I0125 16:25:02.479856 22613 net.cpp:478] relu4_2 <- conv4_2
I0125 16:25:02.479877 22613 net.cpp:420] relu4_2 -> conv4_2 (in-place)
I0125 16:25:02.479892 22613 net.cpp:156] Setting up relu4_2
I0125 16:25:02.479902 22613 net.cpp:164] Top shape: 1 512 48 81 (1990656)
I0125 16:25:02.479907 22613 layer_factory.hpp:76] Creating layer conv4_3
I0125 16:25:02.479918 22613 net.cpp:111] Creating Layer conv4_3
I0125 16:25:02.479924 22613 net.cpp:478] conv4_3 <- conv4_2
I0125 16:25:02.479936 22613 net.cpp:434] conv4_3 -> conv4_3
I0125 16:25:02.489241 22613 net.cpp:156] Setting up conv4_3
I0125 16:25:02.489276 22613 net.cpp:164] Top shape: 1 512 48 81 (1990656)
I0125 16:25:02.489291 22613 layer_factory.hpp:76] Creating layer relu4_3
I0125 16:25:02.489305 22613 net.cpp:111] Creating Layer relu4_3
I0125 16:25:02.489313 22613 net.cpp:478] relu4_3 <- conv4_3
I0125 16:25:02.489325 22613 net.cpp:420] relu4_3 -> conv4_3 (in-place)
I0125 16:25:02.489337 22613 net.cpp:156] Setting up relu4_3
I0125 16:25:02.489346 22613 net.cpp:164] Top shape: 1 512 48 81 (1990656)
I0125 16:25:02.489357 22613 layer_factory.hpp:76] Creating layer conv4_3_relu4_3_0_split
I0125 16:25:02.489368 22613 net.cpp:111] Creating Layer conv4_3_relu4_3_0_split
I0125 16:25:02.489374 22613 net.cpp:478] conv4_3_relu4_3_0_split <- conv4_3
I0125 16:25:02.489385 22613 net.cpp:434] conv4_3_relu4_3_0_split -> conv4_3_relu4_3_0_split_0
I0125 16:25:02.489400 22613 net.cpp:434] conv4_3_relu4_3_0_split -> conv4_3_relu4_3_0_split_1
I0125 16:25:02.489414 22613 net.cpp:156] Setting up conv4_3_relu4_3_0_split
I0125 16:25:02.489423 22613 net.cpp:164] Top shape: 1 512 48 81 (1990656)
I0125 16:25:02.489428 22613 net.cpp:164] Top shape: 1 512 48 81 (1990656)
I0125 16:25:02.489434 22613 layer_factory.hpp:76] Creating layer pool4
I0125 16:25:02.489445 22613 net.cpp:111] Creating Layer pool4
I0125 16:25:02.489451 22613 net.cpp:478] pool4 <- conv4_3_relu4_3_0_split_0
I0125 16:25:02.489464 22613 net.cpp:434] pool4 -> pool4
I0125 16:25:02.489482 22613 net.cpp:156] Setting up pool4
I0125 16:25:02.489490 22613 net.cpp:164] Top shape: 1 512 24 41 (503808)
I0125 16:25:02.489496 22613 layer_factory.hpp:76] Creating layer conv5_1
I0125 16:25:02.489507 22613 net.cpp:111] Creating Layer conv5_1
I0125 16:25:02.489513 22613 net.cpp:478] conv5_1 <- pool4
I0125 16:25:02.489539 22613 net.cpp:434] conv5_1 -> conv5_1
I0125 16:25:02.498215 22613 net.cpp:156] Setting up conv5_1
I0125 16:25:02.498247 22613 net.cpp:164] Top shape: 1 512 24 41 (503808)
I0125 16:25:02.498262 22613 layer_factory.hpp:76] Creating layer relu5_1
I0125 16:25:02.498289 22613 net.cpp:111] Creating Layer relu5_1
I0125 16:25:02.498299 22613 net.cpp:478] relu5_1 <- conv5_1
I0125 16:25:02.498311 22613 net.cpp:420] relu5_1 -> conv5_1 (in-place)
I0125 16:25:02.498323 22613 net.cpp:156] Setting up relu5_1
I0125 16:25:02.498332 22613 net.cpp:164] Top shape: 1 512 24 41 (503808)
I0125 16:25:02.498344 22613 layer_factory.hpp:76] Creating layer conv5_2
I0125 16:25:02.498355 22613 net.cpp:111] Creating Layer conv5_2
I0125 16:25:02.498361 22613 net.cpp:478] conv5_2 <- conv5_1
I0125 16:25:02.498373 22613 net.cpp:434] conv5_2 -> conv5_2
I0125 16:25:02.506713 22613 net.cpp:156] Setting up conv5_2
I0125 16:25:02.506742 22613 net.cpp:164] Top shape: 1 512 24 41 (503808)
I0125 16:25:02.506755 22613 layer_factory.hpp:76] Creating layer relu5_2
I0125 16:25:02.506767 22613 net.cpp:111] Creating Layer relu5_2
I0125 16:25:02.506774 22613 net.cpp:478] relu5_2 <- conv5_2
I0125 16:25:02.506784 22613 net.cpp:420] relu5_2 -> conv5_2 (in-place)
I0125 16:25:02.506796 22613 net.cpp:156] Setting up relu5_2
I0125 16:25:02.506803 22613 net.cpp:164] Top shape: 1 512 24 41 (503808)
I0125 16:25:02.506809 22613 layer_factory.hpp:76] Creating layer conv5_3
I0125 16:25:02.506819 22613 net.cpp:111] Creating Layer conv5_3
I0125 16:25:02.506824 22613 net.cpp:478] conv5_3 <- conv5_2
I0125 16:25:02.506834 22613 net.cpp:434] conv5_3 -> conv5_3
I0125 16:25:02.514847 22613 net.cpp:156] Setting up conv5_3
I0125 16:25:02.514875 22613 net.cpp:164] Top shape: 1 512 24 41 (503808)
I0125 16:25:02.514888 22613 layer_factory.hpp:76] Creating layer relu5_3
I0125 16:25:02.514911 22613 net.cpp:111] Creating Layer relu5_3
I0125 16:25:02.514919 22613 net.cpp:478] relu5_3 <- conv5_3
I0125 16:25:02.514930 22613 net.cpp:420] relu5_3 -> conv5_3 (in-place)
I0125 16:25:02.514941 22613 net.cpp:156] Setting up relu5_3
I0125 16:25:02.514950 22613 net.cpp:164] Top shape: 1 512 24 41 (503808)
I0125 16:25:02.514958 22613 layer_factory.hpp:76] Creating layer score-dsn1
I0125 16:25:02.514969 22613 net.cpp:111] Creating Layer score-dsn1
I0125 16:25:02.514976 22613 net.cpp:478] score-dsn1 <- conv1_2_relu1_2_0_split_1
I0125 16:25:02.514988 22613 net.cpp:434] score-dsn1 -> score-dsn1-up
I0125 16:25:02.516201 22613 net.cpp:156] Setting up score-dsn1
I0125 16:25:02.516222 22613 net.cpp:164] Top shape: 1 1 382 644 (246008)
I0125 16:25:02.516235 22613 layer_factory.hpp:76] Creating layer crop
I0125 16:25:02.516247 22613 net.cpp:111] Creating Layer crop
I0125 16:25:02.516253 22613 net.cpp:478] crop <- score-dsn1-up
I0125 16:25:02.516263 22613 net.cpp:478] crop <- data_data_0_split_1
I0125 16:25:02.516273 22613 net.cpp:434] crop -> upscore-dsn1
I0125 16:25:02.516355 22613 net.cpp:156] Setting up crop
I0125 16:25:02.516364 22613 net.cpp:164] Top shape: 1 1 314 576 (180864)
I0125 16:25:02.516371 22613 layer_factory.hpp:76] Creating layer upscore-dsn1_crop_0_split
I0125 16:25:02.516381 22613 net.cpp:111] Creating Layer upscore-dsn1_crop_0_split
I0125 16:25:02.516386 22613 net.cpp:478] upscore-dsn1_crop_0_split <- upscore-dsn1
I0125 16:25:02.516397 22613 net.cpp:434] upscore-dsn1_crop_0_split -> upscore-dsn1_crop_0_split_0
I0125 16:25:02.516412 22613 net.cpp:434] upscore-dsn1_crop_0_split -> upscore-dsn1_crop_0_split_1
I0125 16:25:02.516424 22613 net.cpp:434] upscore-dsn1_crop_0_split -> upscore-dsn1_crop_0_split_2
I0125 16:25:02.516438 22613 net.cpp:156] Setting up upscore-dsn1_crop_0_split
I0125 16:25:02.516446 22613 net.cpp:164] Top shape: 1 1 314 576 (180864)
I0125 16:25:02.516453 22613 net.cpp:164] Top shape: 1 1 314 576 (180864)
I0125 16:25:02.516458 22613 net.cpp:164] Top shape: 1 1 314 576 (180864)
I0125 16:25:02.516464 22613 layer_factory.hpp:76] Creating layer 
I0125 16:25:02.516484 22613 net.cpp:111] Creating Layer 
I0125 16:25:02.516490 22613 net.cpp:478]  <- upscore-dsn1_crop_0_split_0
I0125 16:25:02.516499 22613 net.cpp:478]  <- label_data_1_split_0
I0125 16:25:02.516510 22613 net.cpp:434]  -> dsn1_loss
I0125 16:25:02.517638 22613 net.cpp:156] Setting up 
I0125 16:25:02.517663 22613 net.cpp:164] Top shape: (1)
I0125 16:25:02.517668 22613 net.cpp:169]     with loss weight 1
I0125 16:25:02.517699 22613 layer_factory.hpp:76] Creating layer score-dsn2
I0125 16:25:02.517714 22613 net.cpp:111] Creating Layer score-dsn2
I0125 16:25:02.517721 22613 net.cpp:478] score-dsn2 <- conv2_2_relu2_2_0_split_1
I0125 16:25:02.517735 22613 net.cpp:434] score-dsn2 -> score-dsn2
I0125 16:25:02.517935 22613 net.cpp:156] Setting up score-dsn2
I0125 16:25:02.517948 22613 net.cpp:164] Top shape: 1 1 191 322 (61502)
I0125 16:25:02.517959 22613 layer_factory.hpp:76] Creating layer upsample_2
I0125 16:25:02.517972 22613 net.cpp:111] Creating Layer upsample_2
I0125 16:25:02.517979 22613 net.cpp:478] upsample_2 <- score-dsn2
I0125 16:25:02.517990 22613 net.cpp:434] upsample_2 -> score-dsn2-up
I0125 16:25:02.519192 22613 net.cpp:156] Setting up upsample_2
I0125 16:25:02.519214 22613 net.cpp:164] Top shape: 1 1 384 646 (248064)
I0125 16:25:02.519227 22613 layer_factory.hpp:76] Creating layer crop
I0125 16:25:02.519238 22613 net.cpp:111] Creating Layer crop
I0125 16:25:02.519245 22613 net.cpp:478] crop <- score-dsn2-up
I0125 16:25:02.519253 22613 net.cpp:478] crop <- data_data_0_split_2
I0125 16:25:02.519263 22613 net.cpp:434] crop -> upscore-dsn2
I0125 16:25:02.519349 22613 net.cpp:156] Setting up crop
I0125 16:25:02.519358 22613 net.cpp:164] Top shape: 1 1 314 576 (180864)
I0125 16:25:02.519364 22613 layer_factory.hpp:76] Creating layer concat_1to2
I0125 16:25:02.519378 22613 net.cpp:111] Creating Layer concat_1to2
I0125 16:25:02.519385 22613 net.cpp:478] concat_1to2 <- upscore-dsn1_crop_0_split_1
I0125 16:25:02.519402 22613 net.cpp:478] concat_1to2 <- upscore-dsn2
I0125 16:25:02.519412 22613 net.cpp:434] concat_1to2 -> upscore-dsn2-fuse
I0125 16:25:02.519428 22613 net.cpp:156] Setting up concat_1to2
I0125 16:25:02.519435 22613 net.cpp:164] Top shape: 1 2 314 576 (361728)
I0125 16:25:02.519440 22613 layer_factory.hpp:76] Creating layer upscore-dsn2-fuse_concat_1to2_0_split
I0125 16:25:02.519451 22613 net.cpp:111] Creating Layer upscore-dsn2-fuse_concat_1to2_0_split
I0125 16:25:02.519457 22613 net.cpp:478] upscore-dsn2-fuse_concat_1to2_0_split <- upscore-dsn2-fuse
I0125 16:25:02.519467 22613 net.cpp:434] upscore-dsn2-fuse_concat_1to2_0_split -> upscore-dsn2-fuse_concat_1to2_0_split_0
I0125 16:25:02.519480 22613 net.cpp:434] upscore-dsn2-fuse_concat_1to2_0_split -> upscore-dsn2-fuse_concat_1to2_0_split_1
I0125 16:25:02.519493 22613 net.cpp:156] Setting up upscore-dsn2-fuse_concat_1to2_0_split
I0125 16:25:02.519500 22613 net.cpp:164] Top shape: 1 2 314 576 (361728)
I0125 16:25:02.519506 22613 net.cpp:164] Top shape: 1 2 314 576 (361728)
I0125 16:25:02.519512 22613 layer_factory.hpp:76] Creating layer conv2_in
I0125 16:25:02.519523 22613 net.cpp:111] Creating Layer conv2_in
I0125 16:25:02.519529 22613 net.cpp:478] conv2_in <- upscore-dsn2-fuse_concat_1to2_0_split_0
I0125 16:25:02.519541 22613 net.cpp:434] conv2_in -> dsn2_in
I0125 16:25:02.520709 22613 net.cpp:156] Setting up conv2_in
I0125 16:25:02.520746 22613 net.cpp:164] Top shape: 1 1 314 576 (180864)
I0125 16:25:02.520771 22613 layer_factory.hpp:76] Creating layer dsn2_in_conv2_in_0_split
I0125 16:25:02.520782 22613 net.cpp:111] Creating Layer dsn2_in_conv2_in_0_split
I0125 16:25:02.520789 22613 net.cpp:478] dsn2_in_conv2_in_0_split <- dsn2_in
I0125 16:25:02.520800 22613 net.cpp:434] dsn2_in_conv2_in_0_split -> dsn2_in_conv2_in_0_split_0
I0125 16:25:02.520814 22613 net.cpp:434] dsn2_in_conv2_in_0_split -> dsn2_in_conv2_in_0_split_1
I0125 16:25:02.520828 22613 net.cpp:156] Setting up dsn2_in_conv2_in_0_split
I0125 16:25:02.520836 22613 net.cpp:164] Top shape: 1 1 314 576 (180864)
I0125 16:25:02.520843 22613 net.cpp:164] Top shape: 1 1 314 576 (180864)
I0125 16:25:02.520848 22613 layer_factory.hpp:76] Creating layer 
I0125 16:25:02.520874 22613 net.cpp:111] Creating Layer 
I0125 16:25:02.520881 22613 net.cpp:478]  <- dsn2_in_conv2_in_0_split_0
I0125 16:25:02.520889 22613 net.cpp:478]  <- label_data_1_split_1
I0125 16:25:02.520900 22613 net.cpp:434]  -> dsn2_loss
I0125 16:25:02.521958 22613 net.cpp:156] Setting up 
I0125 16:25:02.521980 22613 net.cpp:164] Top shape: (1)
I0125 16:25:02.521984 22613 net.cpp:169]     with loss weight 1
I0125 16:25:02.522001 22613 layer_factory.hpp:76] Creating layer conv2to3
I0125 16:25:02.522016 22613 net.cpp:111] Creating Layer conv2to3
I0125 16:25:02.522022 22613 net.cpp:478] conv2to3 <- upscore-dsn2-fuse_concat_1to2_0_split_1
I0125 16:25:02.522034 22613 net.cpp:434] conv2to3 -> conv2to3
I0125 16:25:02.523099 22613 net.cpp:156] Setting up conv2to3
I0125 16:25:02.523120 22613 net.cpp:164] Top shape: 1 1 314 576 (180864)
I0125 16:25:02.523133 22613 layer_factory.hpp:76] Creating layer score-dsn3
I0125 16:25:02.523145 22613 net.cpp:111] Creating Layer score-dsn3
I0125 16:25:02.523154 22613 net.cpp:478] score-dsn3 <- conv3_3_relu3_3_0_split_1
I0125 16:25:02.523169 22613 net.cpp:434] score-dsn3 -> score-dsn3
I0125 16:25:02.523298 22613 net.cpp:156] Setting up score-dsn3
I0125 16:25:02.523310 22613 net.cpp:164] Top shape: 1 1 96 161 (15456)
I0125 16:25:02.523319 22613 layer_factory.hpp:76] Creating layer upsample_4
I0125 16:25:02.523330 22613 net.cpp:111] Creating Layer upsample_4
I0125 16:25:02.523336 22613 net.cpp:478] upsample_4 <- score-dsn3
I0125 16:25:02.523346 22613 net.cpp:434] upsample_4 -> score-dsn3-up
I0125 16:25:02.524472 22613 net.cpp:156] Setting up upsample_4
I0125 16:25:02.524493 22613 net.cpp:164] Top shape: 1 1 388 648 (251424)
I0125 16:25:02.524505 22613 layer_factory.hpp:76] Creating layer crop
I0125 16:25:02.524516 22613 net.cpp:111] Creating Layer crop
I0125 16:25:02.524523 22613 net.cpp:478] crop <- score-dsn3-up
I0125 16:25:02.524539 22613 net.cpp:478] crop <- data_data_0_split_3
I0125 16:25:02.524564 22613 net.cpp:434] crop -> upscore-dsn3
I0125 16:25:02.524657 22613 net.cpp:156] Setting up crop
I0125 16:25:02.524665 22613 net.cpp:164] Top shape: 1 1 314 576 (180864)
I0125 16:25:02.524675 22613 layer_factory.hpp:76] Creating layer concat_2to3
I0125 16:25:02.524684 22613 net.cpp:111] Creating Layer concat_2to3
I0125 16:25:02.524690 22613 net.cpp:478] concat_2to3 <- conv2to3
I0125 16:25:02.524698 22613 net.cpp:478] concat_2to3 <- upscore-dsn3
I0125 16:25:02.524706 22613 net.cpp:434] concat_2to3 -> upscore-dsn3-fuse
I0125 16:25:02.524718 22613 net.cpp:156] Setting up concat_2to3
I0125 16:25:02.524725 22613 net.cpp:164] Top shape: 1 2 314 576 (361728)
I0125 16:25:02.524730 22613 layer_factory.hpp:76] Creating layer upscore-dsn3-fuse_concat_2to3_0_split
I0125 16:25:02.524739 22613 net.cpp:111] Creating Layer upscore-dsn3-fuse_concat_2to3_0_split
I0125 16:25:02.524744 22613 net.cpp:478] upscore-dsn3-fuse_concat_2to3_0_split <- upscore-dsn3-fuse
I0125 16:25:02.524754 22613 net.cpp:434] upscore-dsn3-fuse_concat_2to3_0_split -> upscore-dsn3-fuse_concat_2to3_0_split_0
I0125 16:25:02.524763 22613 net.cpp:434] upscore-dsn3-fuse_concat_2to3_0_split -> upscore-dsn3-fuse_concat_2to3_0_split_1
I0125 16:25:02.524773 22613 net.cpp:156] Setting up upscore-dsn3-fuse_concat_2to3_0_split
I0125 16:25:02.524780 22613 net.cpp:164] Top shape: 1 2 314 576 (361728)
I0125 16:25:02.524786 22613 net.cpp:164] Top shape: 1 2 314 576 (361728)
I0125 16:25:02.524791 22613 layer_factory.hpp:76] Creating layer conv3_in
I0125 16:25:02.524801 22613 net.cpp:111] Creating Layer conv3_in
I0125 16:25:02.524807 22613 net.cpp:478] conv3_in <- upscore-dsn3-fuse_concat_2to3_0_split_0
I0125 16:25:02.524827 22613 net.cpp:434] conv3_in -> dsn3_in
I0125 16:25:02.525890 22613 net.cpp:156] Setting up conv3_in
I0125 16:25:02.525912 22613 net.cpp:164] Top shape: 1 1 314 576 (180864)
I0125 16:25:02.525923 22613 layer_factory.hpp:76] Creating layer dsn3_in_conv3_in_0_split
I0125 16:25:02.525938 22613 net.cpp:111] Creating Layer dsn3_in_conv3_in_0_split
I0125 16:25:02.525944 22613 net.cpp:478] dsn3_in_conv3_in_0_split <- dsn3_in
I0125 16:25:02.525954 22613 net.cpp:434] dsn3_in_conv3_in_0_split -> dsn3_in_conv3_in_0_split_0
I0125 16:25:02.525966 22613 net.cpp:434] dsn3_in_conv3_in_0_split -> dsn3_in_conv3_in_0_split_1
I0125 16:25:02.526000 22613 net.cpp:156] Setting up dsn3_in_conv3_in_0_split
I0125 16:25:02.526008 22613 net.cpp:164] Top shape: 1 1 314 576 (180864)
I0125 16:25:02.526015 22613 net.cpp:164] Top shape: 1 1 314 576 (180864)
I0125 16:25:02.526021 22613 layer_factory.hpp:76] Creating layer 
I0125 16:25:02.526029 22613 net.cpp:111] Creating Layer 
I0125 16:25:02.526036 22613 net.cpp:478]  <- dsn3_in_conv3_in_0_split_0
I0125 16:25:02.526044 22613 net.cpp:478]  <- label_data_1_split_2
I0125 16:25:02.526052 22613 net.cpp:434]  -> dsn3_loss
I0125 16:25:02.527096 22613 net.cpp:156] Setting up 
I0125 16:25:02.527117 22613 net.cpp:164] Top shape: (1)
I0125 16:25:02.527122 22613 net.cpp:169]     with loss weight 1
I0125 16:25:02.527133 22613 layer_factory.hpp:76] Creating layer conv3to4
I0125 16:25:02.527148 22613 net.cpp:111] Creating Layer conv3to4
I0125 16:25:02.527154 22613 net.cpp:478] conv3to4 <- upscore-dsn3-fuse_concat_2to3_0_split_1
I0125 16:25:02.527166 22613 net.cpp:434] conv3to4 -> conv3to4
I0125 16:25:02.528223 22613 net.cpp:156] Setting up conv3to4
I0125 16:25:02.528244 22613 net.cpp:164] Top shape: 1 1 314 576 (180864)
I0125 16:25:02.528255 22613 layer_factory.hpp:76] Creating layer score-dsn4
I0125 16:25:02.528267 22613 net.cpp:111] Creating Layer score-dsn4
I0125 16:25:02.528275 22613 net.cpp:478] score-dsn4 <- conv4_3_relu4_3_0_split_1
I0125 16:25:02.528285 22613 net.cpp:434] score-dsn4 -> score-dsn4
I0125 16:25:02.528403 22613 net.cpp:156] Setting up score-dsn4
I0125 16:25:02.528414 22613 net.cpp:164] Top shape: 1 1 48 81 (3888)
I0125 16:25:02.528424 22613 layer_factory.hpp:76] Creating layer upsample_8
I0125 16:25:02.528434 22613 net.cpp:111] Creating Layer upsample_8
I0125 16:25:02.528448 22613 net.cpp:478] upsample_8 <- score-dsn4
I0125 16:25:02.528458 22613 net.cpp:434] upsample_8 -> score-dsn4-up
I0125 16:25:02.529594 22613 net.cpp:156] Setting up upsample_8
I0125 16:25:02.529618 22613 net.cpp:164] Top shape: 1 1 392 656 (257152)
I0125 16:25:02.529628 22613 layer_factory.hpp:76] Creating layer crop
I0125 16:25:02.529639 22613 net.cpp:111] Creating Layer crop
I0125 16:25:02.529644 22613 net.cpp:478] crop <- score-dsn4-up
I0125 16:25:02.529652 22613 net.cpp:478] crop <- data_data_0_split_4
I0125 16:25:02.529661 22613 net.cpp:434] crop -> upscore-dsn4
I0125 16:25:02.529757 22613 net.cpp:156] Setting up crop
I0125 16:25:02.529765 22613 net.cpp:164] Top shape: 1 1 314 576 (180864)
I0125 16:25:02.529772 22613 layer_factory.hpp:76] Creating layer concat_3to4
I0125 16:25:02.529779 22613 net.cpp:111] Creating Layer concat_3to4
I0125 16:25:02.529785 22613 net.cpp:478] concat_3to4 <- conv3to4
I0125 16:25:02.529793 22613 net.cpp:478] concat_3to4 <- upscore-dsn4
I0125 16:25:02.529800 22613 net.cpp:434] concat_3to4 -> upscore-dsn4-fuse
I0125 16:25:02.529812 22613 net.cpp:156] Setting up concat_3to4
I0125 16:25:02.529819 22613 net.cpp:164] Top shape: 1 2 314 576 (361728)
I0125 16:25:02.529824 22613 layer_factory.hpp:76] Creating layer upscore-dsn4-fuse_concat_3to4_0_split
I0125 16:25:02.529832 22613 net.cpp:111] Creating Layer upscore-dsn4-fuse_concat_3to4_0_split
I0125 16:25:02.529837 22613 net.cpp:478] upscore-dsn4-fuse_concat_3to4_0_split <- upscore-dsn4-fuse
I0125 16:25:02.529845 22613 net.cpp:434] upscore-dsn4-fuse_concat_3to4_0_split -> upscore-dsn4-fuse_concat_3to4_0_split_0
I0125 16:25:02.529856 22613 net.cpp:434] upscore-dsn4-fuse_concat_3to4_0_split -> upscore-dsn4-fuse_concat_3to4_0_split_1
I0125 16:25:02.529866 22613 net.cpp:156] Setting up upscore-dsn4-fuse_concat_3to4_0_split
I0125 16:25:02.529873 22613 net.cpp:164] Top shape: 1 2 314 576 (361728)
I0125 16:25:02.529880 22613 net.cpp:164] Top shape: 1 2 314 576 (361728)
I0125 16:25:02.529884 22613 layer_factory.hpp:76] Creating layer conv4_in
I0125 16:25:02.529909 22613 net.cpp:111] Creating Layer conv4_in
I0125 16:25:02.529916 22613 net.cpp:478] conv4_in <- upscore-dsn4-fuse_concat_3to4_0_split_0
I0125 16:25:02.529924 22613 net.cpp:434] conv4_in -> dsn4_in
I0125 16:25:02.531013 22613 net.cpp:156] Setting up conv4_in
I0125 16:25:02.531033 22613 net.cpp:164] Top shape: 1 1 314 576 (180864)
I0125 16:25:02.531046 22613 layer_factory.hpp:76] Creating layer dsn4_in_conv4_in_0_split
I0125 16:25:02.531056 22613 net.cpp:111] Creating Layer dsn4_in_conv4_in_0_split
I0125 16:25:02.531064 22613 net.cpp:478] dsn4_in_conv4_in_0_split <- dsn4_in
I0125 16:25:02.531074 22613 net.cpp:434] dsn4_in_conv4_in_0_split -> dsn4_in_conv4_in_0_split_0
I0125 16:25:02.531085 22613 net.cpp:434] dsn4_in_conv4_in_0_split -> dsn4_in_conv4_in_0_split_1
I0125 16:25:02.531098 22613 net.cpp:156] Setting up dsn4_in_conv4_in_0_split
I0125 16:25:02.531105 22613 net.cpp:164] Top shape: 1 1 314 576 (180864)
I0125 16:25:02.531111 22613 net.cpp:164] Top shape: 1 1 314 576 (180864)
I0125 16:25:02.531116 22613 layer_factory.hpp:76] Creating layer 
I0125 16:25:02.531127 22613 net.cpp:111] Creating Layer 
I0125 16:25:02.531132 22613 net.cpp:478]  <- dsn4_in_conv4_in_0_split_0
I0125 16:25:02.531141 22613 net.cpp:478]  <- label_data_1_split_3
I0125 16:25:02.531149 22613 net.cpp:434]  -> dsn4_loss
I0125 16:25:02.532199 22613 net.cpp:156] Setting up 
I0125 16:25:02.532220 22613 net.cpp:164] Top shape: (1)
I0125 16:25:02.532225 22613 net.cpp:169]     with loss weight 1
I0125 16:25:02.532236 22613 layer_factory.hpp:76] Creating layer conv4to5
I0125 16:25:02.532249 22613 net.cpp:111] Creating Layer conv4to5
I0125 16:25:02.532256 22613 net.cpp:478] conv4to5 <- upscore-dsn4-fuse_concat_3to4_0_split_1
I0125 16:25:02.532270 22613 net.cpp:434] conv4to5 -> conv4to5
I0125 16:25:02.533350 22613 net.cpp:156] Setting up conv4to5
I0125 16:25:02.533371 22613 net.cpp:164] Top shape: 1 1 314 576 (180864)
I0125 16:25:02.533382 22613 layer_factory.hpp:76] Creating layer score-dsn5
I0125 16:25:02.533402 22613 net.cpp:111] Creating Layer score-dsn5
I0125 16:25:02.533411 22613 net.cpp:478] score-dsn5 <- conv5_3
I0125 16:25:02.533422 22613 net.cpp:434] score-dsn5 -> score-dsn5
I0125 16:25:02.533511 22613 net.cpp:156] Setting up score-dsn5
I0125 16:25:02.533524 22613 net.cpp:164] Top shape: 1 1 24 41 (984)
I0125 16:25:02.533535 22613 layer_factory.hpp:76] Creating layer upsample_16
I0125 16:25:02.533545 22613 net.cpp:111] Creating Layer upsample_16
I0125 16:25:02.533551 22613 net.cpp:478] upsample_16 <- score-dsn5
I0125 16:25:02.533561 22613 net.cpp:434] upsample_16 -> score-dsn5-up
I0125 16:25:02.534687 22613 net.cpp:156] Setting up upsample_16
I0125 16:25:02.534708 22613 net.cpp:164] Top shape: 1 1 400 672 (268800)
I0125 16:25:02.534718 22613 layer_factory.hpp:76] Creating layer crop
I0125 16:25:02.534729 22613 net.cpp:111] Creating Layer crop
I0125 16:25:02.534735 22613 net.cpp:478] crop <- score-dsn5-up
I0125 16:25:02.534742 22613 net.cpp:478] crop <- data_data_0_split_5
I0125 16:25:02.534752 22613 net.cpp:434] crop -> upscore-dsn5
I0125 16:25:02.534838 22613 net.cpp:156] Setting up crop
I0125 16:25:02.534847 22613 net.cpp:164] Top shape: 1 1 314 576 (180864)
I0125 16:25:02.534852 22613 layer_factory.hpp:76] Creating layer concat_4to5
I0125 16:25:02.534859 22613 net.cpp:111] Creating Layer concat_4to5
I0125 16:25:02.534865 22613 net.cpp:478] concat_4to5 <- conv4to5
I0125 16:25:02.534871 22613 net.cpp:478] concat_4to5 <- upscore-dsn5
I0125 16:25:02.534880 22613 net.cpp:434] concat_4to5 -> upscore-dsn5-fuse
I0125 16:25:02.534891 22613 net.cpp:156] Setting up concat_4to5
I0125 16:25:02.534898 22613 net.cpp:164] Top shape: 1 2 314 576 (361728)
I0125 16:25:02.534903 22613 layer_factory.hpp:76] Creating layer conv5_in
I0125 16:25:02.534911 22613 net.cpp:111] Creating Layer conv5_in
I0125 16:25:02.534916 22613 net.cpp:478] conv5_in <- upscore-dsn5-fuse
I0125 16:25:02.534926 22613 net.cpp:434] conv5_in -> dsn5_in
I0125 16:25:02.535960 22613 net.cpp:156] Setting up conv5_in
I0125 16:25:02.535980 22613 net.cpp:164] Top shape: 1 1 314 576 (180864)
I0125 16:25:02.535998 22613 layer_factory.hpp:76] Creating layer dsn5_in_conv5_in_0_split
I0125 16:25:02.536010 22613 net.cpp:111] Creating Layer dsn5_in_conv5_in_0_split
I0125 16:25:02.536016 22613 net.cpp:478] dsn5_in_conv5_in_0_split <- dsn5_in
I0125 16:25:02.536026 22613 net.cpp:434] dsn5_in_conv5_in_0_split -> dsn5_in_conv5_in_0_split_0
I0125 16:25:02.536038 22613 net.cpp:434] dsn5_in_conv5_in_0_split -> dsn5_in_conv5_in_0_split_1
I0125 16:25:02.536049 22613 net.cpp:156] Setting up dsn5_in_conv5_in_0_split
I0125 16:25:02.536056 22613 net.cpp:164] Top shape: 1 1 314 576 (180864)
I0125 16:25:02.536062 22613 net.cpp:164] Top shape: 1 1 314 576 (180864)
I0125 16:25:02.536067 22613 layer_factory.hpp:76] Creating layer 
I0125 16:25:02.536077 22613 net.cpp:111] Creating Layer 
I0125 16:25:02.536082 22613 net.cpp:478]  <- dsn5_in_conv5_in_0_split_0
I0125 16:25:02.536089 22613 net.cpp:478]  <- label_data_1_split_4
I0125 16:25:02.536098 22613 net.cpp:434]  -> dsn5_loss
I0125 16:25:02.537120 22613 net.cpp:156] Setting up 
I0125 16:25:02.537142 22613 net.cpp:164] Top shape: (1)
I0125 16:25:02.537147 22613 net.cpp:169]     with loss weight 1
I0125 16:25:02.537156 22613 layer_factory.hpp:76] Creating layer concat
I0125 16:25:02.537169 22613 net.cpp:111] Creating Layer concat
I0125 16:25:02.537175 22613 net.cpp:478] concat <- upscore-dsn1_crop_0_split_2
I0125 16:25:02.537184 22613 net.cpp:478] concat <- dsn2_in_conv2_in_0_split_1
I0125 16:25:02.537191 22613 net.cpp:478] concat <- dsn3_in_conv3_in_0_split_1
I0125 16:25:02.537197 22613 net.cpp:478] concat <- dsn4_in_conv4_in_0_split_1
I0125 16:25:02.537202 22613 net.cpp:478] concat <- dsn5_in_conv5_in_0_split_1
I0125 16:25:02.537212 22613 net.cpp:434] concat -> concat-upscore
I0125 16:25:02.537226 22613 net.cpp:156] Setting up concat
I0125 16:25:02.537233 22613 net.cpp:164] Top shape: 1 5 314 576 (904320)
I0125 16:25:02.537237 22613 layer_factory.hpp:76] Creating layer new-score-weighting
I0125 16:25:02.537247 22613 net.cpp:111] Creating Layer new-score-weighting
I0125 16:25:02.537261 22613 net.cpp:478] new-score-weighting <- concat-upscore
I0125 16:25:02.537271 22613 net.cpp:434] new-score-weighting -> upscore-fuse
I0125 16:25:02.538281 22613 net.cpp:156] Setting up new-score-weighting
I0125 16:25:02.538301 22613 net.cpp:164] Top shape: 1 1 314 576 (180864)
I0125 16:25:02.538312 22613 layer_factory.hpp:76] Creating layer 
I0125 16:25:02.538324 22613 net.cpp:111] Creating Layer 
I0125 16:25:02.538331 22613 net.cpp:478]  <- upscore-fuse
I0125 16:25:02.538338 22613 net.cpp:478]  <- label_data_1_split_5
I0125 16:25:02.538347 22613 net.cpp:434]  -> fuse_loss
I0125 16:25:02.539333 22613 net.cpp:156] Setting up 
I0125 16:25:02.539352 22613 net.cpp:164] Top shape: (1)
…
